qnet_4.25.pt (torch, 102065 bytes, 6 tensors)

net.0.weight f4 [128, 57]
0.12233404 0.07445467 0.110518634 0.041303877 -0.10002667 0.038695313 -0.10179782 0.001301415
0.06908984 -0.011027779 0.041375436 -0.06190164 0.01584593 0.022623118 -0.03128414 0.10868434
0.06792039 -0.07915593 0.108500846 -0.01810232 -0.117069766 -0.075380795 -0.013424144 0.0006860132
0.117649 -0.0081742415 0.08370385 -0.11085379 -0.06727816 -0.0061852187 -0.018910512 0.104699515
0.07620599 0.10105721 0.018372638 -0.08308757 0.1035851 -0.077476636 0.035343204 0.13038649
-0.019024672 -0.12600568 -0.017960528 -0.02160726 0.07035743 -0.03248657 -0.015280944 -0.06865871
0.08897277 0.11767034 -0.021983022 0.048569754 0.121604495 -0.02214193 -0.0037643486 -0.09242797
-0.09867016 0.32870764 -0.06294757 0.17181137 0.44063288 0.13711376 0.28191414 0.071372345
-0.1942161 -0.117434785 -0.31282443 -0.027875403 0.25058243 0.21545722 -0.23445827 -0.26478288
0.17128387 0.12068606 -0.08852848 -0.4741699 -0.07142379 0.2704962 -0.3524167 0.18030986
0.042949375 -0.15021157 0.06080926 -0.31454933 0.50987464 -0.5459329 0.516632 -0.44599465
-0.4279323 -0.0068372744 0.91160136 0.29513228 0.16236925 0.27301624 -0.45191962 -0.40113738
-0.70146877 0.8285996 -0.51036114 0.7707656 -0.32636237 0.17019428 -0.4067138 -0.3412506
-0.5939498 0.3986964 0.6190797 -0.15317361 -0.4600517 0.43136594 0.014691341 -0.113426134
-0.042117115 -0.26222336 0.09855179 0.33341613 -0.046018325 -0.34326476 -0.3107468 0.24277887
0.039323445 0.14386164 0.036653224 0.36507672 -0.048428036 -0.14636017 0.32439074 -0.3379829
0.16280067 0.100158736 0.40378892 -0.26793477 -0.054537926 -0.32884094 0.17073387 0.409809
-0.28386673 -0.34729 -0.14792019 -0.025968743 -0.19662426 -0.27571774 0.1873116 0.05731008
-0.12493158 0.27712223 -0.8725755 0.28231272 0.5205197 0.30066913 -0.36832184 -0.05595468
0.0053664334 -0.4843538 0.49300703 0.22714622 0.47374374 0.10798403 0.27982473 -0.5740591
0.95555925 -0.5142101 0.14787596 0.68839914 0.22698344 -0.3798561 -0.028415017 0.004163981
0.108151175 0.12632151 -0.2651311 0.10347842 -0.0016447271 0.3823906 0.34368747 0.229571
0.040850244 -0.40971908 0.83377594 -0.46966362 0.12513031 -0.057080112 -0.20361875 -0.11261614
0.017962944 -0.5033414 0.44457552 -0.26157126 0.1457277 -0.08458316 -0.031695582 0.14177567
0.013644081 -0.06291845 -0.42140806 -0.81245756 -0.069342464 -0.0035601184 -0.059998106 0.38376844
-0.1917881 -0.17526922 -0.04285133 0.19295867 0.42615247 -0.6131436 0.014464564 0.30567083
-0.65266913 -0.8954485 0.09585791 0.28683206 0.117299356 -0.3430112 0.4413511 0.2220984
0.40728748 0.23028202 0.2619051 0.33342093 0.36399725 0.17882408 0.33217382 -0.043532502
0.102696516 0.1847247 -0.35023028 0.14302456 -0.4132864 -0.51570827 0.25216126 0.21644711
-0.28003556 -0.19361776 -0.43649426 0.07164981 -0.16600434 0.68458974 -0.60806686 0.17789643
0.22121604 -0.14909242 0.09626168 -0.3017998 -0.09565936 0.33885074 0.6625507 0.3135505
0.026709756 0.17672811 0.044862438 -0.0147514185 0.14287035 0.50553095 -0.47460294 -0.1864191
00000000: 458a fa3d b17b 983d 9857 e23d 412e 293d
00000010: c8da ccbd fa7e 1e3d 607b d0bd 3e94 aa3a
00000020: f97e 8d3d dcad 34bc 4a79 293d 938c 7dbd
00000030: 53cf 813c 1e54 b93c cc23 00bd e595 de3d
00000040: d819 8b3d 811c a2bd b135 de3d 514b 94bc
00000050: 46c2 efbd 3f61 9abd f1f0 5bbc 91d5 333a
00000060: f5f1 f03d 41ed 05bc ed6c ab3d 5007 e3bd
00000070: 22c9 89bd 60ad cabb 38ea 9abc b36c d63d
00000080: e311 9c3d 15f7 ce3d 3782 963c d129 aabd
00000090: 6d24 d43d 12ac 9ebd 09c4 103d 0984 053e
000000a0: a1d9 9bbc a207 01be f521 93bc b501 b1bc
000000b0: 8e17 903d a310 05bd ed5c 7abc f09c 8cbd
000000c0: 5b37 b63d 26fd f03d bd15 b4bc 14f1 463d
000000d0: c70b f93d fe62 b5bc 4ab3 76bb e04a bdbd
000000e0: 9513 cabd 5e4c a83e a8ea 80bd 52ef 2f3e
000000f0: a29a e13e 8d67 0c3e 0d57 903e aa2b 923d
00000100: 96e0 46be a681 f0bd 862a a0be f55a e4bc
00000110: 574c 803e d1a0 5c3e d415 70be 9f91 87be
00000120: 0a65 2f3e 412a f73d 6b4e b5bd 66c6 f2be
00000130: a346 92bd 7a7e 8a3e f66f b4be 26a3 383e
00000140: afeb 2f3d 10d1 19be 2113 793d 9c0c a1be
00000150: 2587 023f 42c2 0bbf ff41 043f 6959 e4be
00000160: f119 dbbe 370b e0bb b55e 693f 941b 973e
00000170: 2044 263e c9c8 8b3e 0262 e7be e161 cdbe
00000180: 7593 33bf 1a1f 543f 07a7 02bf e550 453f
00000190: f818 a7be 6947 2e3e cb3c d0be 66b8 aebe
000001a0: 180d 18bf ef21 cc3e 027c 1e3f 8bd9 1cbe
000001b0: e58b ebbe ffdb dc3e f3b3 703c f64b e8bd
000001c0: ff82 2cbd 2442 86be 85d5 c93d 85b5 aa3e
000001d0: b67d 3cbd 66c0 afbe 341a 9fbe 069b 783e
000001e0: 9f11 213d 7750 133e b121 163d 56eb ba3e
000001f0: 7a5c 46bd 71df 15be 8b16 a63e 180c adbe
00000200: 38b5 263e 0620 cd3d 6cbd ce3e bf2e 89be
00000210: 2963 5fbd d75d a8be dcd4 2e3e 7cd2 d13e
00000220: fb56 91be ffcf b1be 6478 17be 67bc d4bc
00000230: df57 49be e02a 8dbe 9dce 3f3e f9bd 6a3d
00000240: 21dc ffbd f7e2 8d3e 1c61 5fbf 4b8b 903e
00000250: c740 053f 4ef1 993e ae94 bcbe bc30 65bd
00000260: e8d8 af3b 39fd f7be 6b6b fc3e 0599 683e
00000270: 8a8e f23e bb26 dd3d 3045 8f3e 8af5 12bf
00000280: 889f 743f 46a3 03bf cc6c 173e ed3a 303f
00000290: 596e 683e 807c c2be 9cc6 e8bc 0172 883b
000002a0: 5d7e dd3d 6d5a 013e 43bf 87be 7eec d33d
000002b0: e293 d7ba b3c8 c33e cef7 af3e a914 6b3e
000002c0: 9652 273d b3c6 d1be 5772 553f c077 f0be
000002d0: 2922 003e d6cc 69bd 6f81 50be 4aa3 e6bd
000002e0: 0627 933c fbda 00bf 679f e33e abec 85be
000002f0: a439 153e f039 adbd 3ad3 01bd a42d 113e
00000300: 6c8b 5f3c 63db 80bd ccc2 d7be 38fd 4fbf
00000310: 6c03 8ebd e050 69bb 93c0 75bd 4c7d c43e
00000320: 1a64 44be c679 33be e084 2fbd f596 453e
00000330: a830 da3e fbf6 1cbf c7fc 6c3c e380 9c3e
00000340: 5315 27bf 1d3c 65bf 2751 c43d a7db 923e
00000350: a53a f03d 2a9f afbe c5f8 e13e c36d 633e
00000360: fc87 d03e 0dcf 6b3e 6d18 863e 26b6 aa3e
00000370: d95d ba3e a91d 373e b012 aa3e 234f 32bd
00000380: 8d52 d23d 7928 3d3e 6251 b3be 0875 123e
00000390: 469a d3be 7505 04bf 481b 813e 50a4 5d3e
000003a0: d260 8fbe bc43 46be 2d7c dfbe 23bd 923d
000003b0: 0bfd 29be 4641 2f3f 45aa 1bbf 7b2a 363e
000003c0: 7586 623e afab 18be d824 c53d 8185 9abe
000003d0: 0ee9 c3bd d87d ad3e ec9c 293f b189 a03e
000003e0: 6bce da3c 37f8 343e adc1 373d efaf 71bc
000003f0: 9b4c 123e 7a6a 013f 28ff f2be a6e4 3ebe

net.0.bias f4 [128]
-0.087389335 0.32551906 -0.23899445 0.10638861 0.16555825 -0.06393732 -0.04720403 0.27201122
-0.126233 0.24565335 -0.02400304 -0.118014194 -0.12168844 -0.08628406 -0.061932914 0.099689454
-0.091524206 0.11443221 0.26784557 -0.13745973 0.038677834 0.028042188 0.065252535 -0.0067263604
0.03630819 -0.12746707 0.22036241 -0.18864313 0.021754552 0.10435748 -0.31246024 0.1104722
0.15769042 -0.10769066 -0.24373624 0.22401968 0.15015978 -0.36477056 -0.1135459 0.44443533
-0.5185634 -0.008223848 -0.009868101 -0.10939331 0.05193903 -0.14755994 -0.31436342 -0.38672838
0.23405388 -0.27265272 -0.086875886 -0.009083833 -0.010691623 0.065217055 0.13676071 -0.05636628
0.044042315 0.14044373 -0.40042502 0.29254946 0.04525929 -0.17726587 0.072893314 0.02230672
0.08311113 -0.22128797 -0.26654145 -0.13210443 -0.18147273 -0.09948255 -0.5650623 0.101387836
-0.0035484186 0.050476603 0.06872965 0.17105111 -0.3644183 -0.3763828 0.29703373 0.11876109
-0.28963116 -0.103190795 0.31552145 0.088196106 0.15604006 -0.43451622 0.3106149 -0.10093516
0.030348144 0.029858494 -0.14638375 -0.22067952 -0.120144255 0.08014751 -0.05640052 -0.06167485
0.0007829785 -0.16424027 -0.2805345 0.115360275 0.20217343 0.2550955 -0.5149983 0.30285144
-0.29243925 -0.40660027 -0.017244946 -0.07094861 0.072932035 -0.32415703 -0.4864655 -0.29984772
-0.35363093 0.11785354 0.23200062 -0.2696452 -0.10220897 0.1034187 -0.09249661 0.218934
0.07319865 0.072718196 -0.034724366 0.017545247 0.15442468 -0.08829173 0.015127856 -0.37297451
00000000: 2ef9 b2bd 6faa a63e f6ba 74be 46e2 d93d
00000010: 1a88 293e 92f1 82bd 0359 41bd 0e45 8b3e
00000020: 3943 01be 8d8c 7b3e 06a2 c4bc 6db1 f1bd
00000030: ca37 f9bd b2b5 b0bd 5ead 7dbd fc29 cc3d
00000040: 0b71 bbbd 6f5b ea3d 0e23 893e 3ec2 0cbe
00000050: a66c 1e3d bbb8 e53c 1fa3 853d cd68 dcbb
00000060: e6b7 143d ba86 02be afa6 613e aa2b 41be
00000070: 9a36 b23c 60b9 d53d cafa 9fbe 403f e23d
00000080: 9979 213e ec8c dcbd fe95 79be 6a65 653e
00000090: 7cc3 193e 35c3 babe c18a e8bd 078d e33e
000000a0: 92c0 04bf 52bd 06bc d1ad 21bc 9a09 e0bd
000000b0: 05be 543d f419 17be 3ef4 a0be 4301 c6be
000000c0: d2ab 6f3e 2399 8bbe fceb b1bd 5bd4 14bc
000000d0: eb2b 2fbc 8590 853d 000b 0c3e 54e0 66bd
000000e0: b765 343d 7bd0 0f3e 8204 cdbe 0bc9 953e
000000f0: ce61 393d 2f85 35be 1749 953d 95bc b63c
00000100: 2b36 aa3d 5099 62be 1f78 88be 6246 07be
00000110: fdd3 39be 82bd cbbd eca7 10bf 6da4 cf3d
00000120: 968c 68bb 8ec0 4e3d 21c2 8c3d 0628 2f3e
00000130: 0995 babe 3fb5 c0be ce14 983e 0439 f33d
00000140: 894a 94be b255 d3bd 078c a13e 29a0 b43d
00000150: f7c8 1f3e e978 debe eb08 9f3e 18b7 cebd
00000160: ac9c f83c cd99 f43c 9fe5 15be d0f9 61be
00000170: 310e f6bd 6124 a43d 3b04 67bd c49e 7cbd
00000180: cc40 4d3a 9a2e 28be 38a2 8fbe 0242 ec3d
00000190: 8d06 4f3e e19b 823e eed6 03bf 580f 9b3e
000001a0: 99ba 95be e92d d0be 4645 8dbc 814d 91bd
000001b0: 645d 953d e9f7 a5be 0212 f9be a485 99be
000001c0: 1d0f b5be 325d f13d 9291 6d3e f00e 8abe
000001d0: f052 d1bd 2fcd d33d dd6e bdbd 3c30 603e
000001e0: 2ce9 953d 47ed 943d 233b 0ebd 0dbb 8f3c
000001f0: 8121 1e3e 4bd2 b4bd d4da 773c 84f6 bebe

net.2.weight f4 [128, 128]
-0.061557114 -0.31284142 -0.15673557 -0.86672527 0.39296487 0.03722047 -0.0024686146 0.23676483
0.048519652 -0.07140085 0.01246572 -0.002670614 -0.043670785 -0.5299948 0.12566023 0.21618956
0.0036908442 0.044779297 -0.6776159 -0.11121116 -0.18427053 -0.30268195 -0.048064876 -0.5030723
0.032184813 -0.23915681 0.43450922 -0.26324633 0.00060531293 -0.53965735 0.10424921 0.045431763
-0.20585771 0.078144014 -0.33320013 -0.28274256 -0.3619525 -0.017081842 0.023521809 0.060646582
0.09378291 -0.16478732 0.06084717 0.033741493 0.08423473 -0.13526435 -0.0146841705 0.2341309
0.1394419 -0.15867758 0.027927777 -1.0705627 0.05034765 0.03599368 -0.30619588 -0.34419528
0.012546769 0.27551055 -0.82101977 0.08383292 -0.31491417 -0.022668023 -0.08369766 -0.16678387
0.028741527 -0.6728858 0.110137016 0.12534805 0.12039777 -0.46186265 -0.13468929 -0.5940718
-0.24833657 0.06425531 0.101842836 -0.34665552 -0.522787 0.2243475 -0.15956746 -0.44228584
-0.21479845 -0.22101869 -0.9639201 0.13277747 0.22056809 -0.028801687 -0.3872612 -0.065494254
0.035191324 0.0079990085 0.48341265 0.27945063 -0.031227175 -0.8560723 0.3347653 0.22253944
-0.51761985 -0.54004717 -0.3868555 0.11096492 -0.14960852 -0.0674448 -0.30758986 0.0608019
-0.92336905 -0.23695692 -0.890667 -0.13914616 0.20809343 0.2766655 0.062605694 -0.11929809
-0.18735428 0.124765456 0.10036579 -0.22894341 -0.5787986 -0.52562326 -0.04345931 -0.09134745
0.053185422 0.02629152 0.011997796 -0.107133895 -0.0046815057 0.046258483 -0.008418831 -0.42240858
0.034410626 -0.6680108 -0.025535954 -0.26100808 0.118517265 0.08693663 -0.0073101707 -0.3197612
0.029663341 0.110678144 -0.00947418 -0.041518606 -0.042537298 0.4025231 0.25762093 -0.078230634
0.25468874 0.13664185 0.021759428 0.1458181 -0.36930203 0.080154166 0.07475871 0.090420365
-0.19728947 -0.32162008 -0.253089 -0.026577596 -0.5283375 0.077598706 -0.09414578 -0.00861157
-0.076369 0.04073378 0.031278044 0.09731087 0.27274173 0.23756346 0.06059645 -0.2978624
0.14492337 -0.013848328 0.06612352 0.026694803 -0.036882307 0.06149721 -0.33818516 0.0361672
0.077795245 -0.05382048 -0.09571024 0.3728879 0.049877338 0.055198736 -0.13619684 0.07707361
-0.37448004 -0.14665748 0.21345256 -0.31359288 -0.16353424 0.08978137 -0.020488556 0.37688893
0.0331826 -0.05350915 -0.17905447 -0.46400297 -0.22164984 -0.4115285 -0.26202437 -0.4042105
0.38586396 -0.8524758 -0.41929647 -0.13798429 0.16880812 -0.13572739 -0.3665462 0.2927008
-0.22602347 -0.0757062 -0.07162916 0.16930017 -0.162414 -0.18558441 -0.3636569 -0.061905578
-0.05937689 -0.5956203 0.47745648 0.14782353 -0.41759923 -0.038076144 -0.06576439 -0.22815993
-0.8039678 -0.5857041 -0.0011057808 0.15397462 -0.06492079 -0.07267259 -0.16990873 0.092408866
0.014070653 0.03552707 -0.029372644 -0.21790084 0.04426307 -0.10431101 -0.47537073 0.077993624
-0.46131796 -0.8482278 -0.777154 0.09382491 0.03949929 -0.28406566 -0.0014832319 -0.32570708
-0.041961614 -0.025252365 -0.097212 0.02315395 -0.109503 -0.0613185 -0.3809995 -0.07893147
00000000: 5023 7cbd c02c a0be 4a7f 20be b5e1 5dbf
00000010: b132 c93e 7e74 183d 7bc8 21bb 7b72 723e
00000020: 8bbc 463d 9c3a 92bd 053d 4c3c 7805 2fbb
00000030: 23e0 32bd bdad 07bf 13ad 003e cc60 5d3e
00000040: 17e2 713b 7f6a 373d 3c78 2dbf adc2 e3bd
00000050: 6ab1 3cbe 21f9 9abe addf 44bd 59c9 00bf
00000060: 39d4 033d 86e5 74be fe77 de3e 39c8 86be
00000070: ddad 1e3a fc26 0abf 9c80 d53d a816 3a3d
00000080: 5dcc 52be f809 a03d 3599 aabe a2c3 90be
00000090: d751 b9be 38ef 8bbc cfb0 c03c 8d68 783d
000000a0: 4111 c03d 02be 28be e23a 793d 8534 0a3d
000000b0: 4283 ac3d bd82 0abe e095 70bc 03c0 6f3e
000000c0: dcc9 0e3e 607c 22be cbc8 e43c 3308 89bf
000000d0: 5639 4e3d 1c6e 133d b5c5 9cbe 5d3a b0be
000000e0: f790 4d3c b80f 8d3e 5a2e 52bf 98b0 ab3d
000000f0: 6e3c a1be 4ab2 b9bc ae69 abbd 64c9 2abe
00000100: 5a73 eb3c 3e42 2cbf 848f e13d 3d5b 003e
00000110: 1b93 f63d 4379 ecbe fdeb 09be 1715 18bf
00000120: f14b 7ebe 4a98 833d fa92 d03d d57c b1be
00000130: 5ed5 05bf 5abb 653e a765 23be 4a73 e2be
00000140: 20f4 5bbe b952 62be 78c3 76bf d1f6 073e
00000150: 9adc 613e 84f1 ebbc 1a47 c6be da21 86bd
00000160: c724 103d 460e 033c dd81 f73e 2714 8f3e
00000170: 22d0 ffbc 8e27 5bbf 5b66 ab3e 61e1 633e
00000180: bc82 04bf 8840 0abf ed11 c6be 9341 e33d
00000190: fa32 19be 8020 8abd 6b7c 9dbe 6a0b 793d
000001a0: ea61 6cbf d6a4 72be c102 64bf 557c 0ebe
000001b0: 7216 553e 1aa7 8d3e 6a37 803d 8f52 f4bd
000001c0: cdd9 3fbe 0885 ff3d 948c cd3d 2470 6abe
000001d0: 252c 14bf 3f8f 06bf 6402 32bd 5f14 bbbd
000001e0: f5d8 593d 5061 d73c 6792 443c 0469 dbbd
000001f0: 5167 99bb 8979 3d3d 23ef 09bc f045 d8be
00000200: 28f2 0c3d c102 2bbf c730 d1bc daa2 85be
00000210: 2eb9 f23d d50b b23d 288a efbb bdb7 a3be
00000220: 8900 f33c 39ab e23d 9739 1bbc 6a0f 2abd
00000230: 973b 2ebd 8217 ce3e e4e6 833e 6237 a0bd
00000240: 9066 823e d7eb 0b3e d440 b23c 5751 153e
00000250: 2815 bdbe de27 a43d 181b 993d 502e b93d
00000260: 4006 4abe 63ab a4be e294 81be 42b9 d9bc
00000270: 2041 07bf 12ec 9e3d 81cf c0bd 8b17 0dbc
00000280: 5a67 9cbd 77d8 263d 681d 003d ec4a c73d
00000290: cea4 8b3e d643 733e fc33 783d 6c81 98be
000002a0: cb66 143e 19e4 62bc c56b 873d 0faf da3c
000002b0: e711 17bd 80e4 7b3d 9b26 adbe 0f24 143d
000002c0: 1d53 9f3d dd72 5cbd bb03 c4bd 2aeb be3e
000002d0: 2e4c 4c3d 1218 623d 2f77 0bbe c5d8 9d3d
000002e0: d9bb bfbe 612d 16be 4f93 5a3e 3f8f a0be
000002f0: 8575 27be 4bdf b73d 9ed7 a7bc 96f7 c03e
00000300: 7aea 073d 692c 5bbd 0e5a 37be cc91 edbe
00000310: 2df8 62be ddb3 d2be 0f28 86be aef4 cebe
00000320: f68f c53e db3b 5abf 07ae d6be c14b 0dbe
00000330: 09dc 2c3e 1ffc 0abe f2ab bbbe e1dc 953e
00000340: b272 67be da0b 9bbd 4fb2 92bd 065d 2d3e
00000350: db4f 26be d709 3ebe 3d31 babe b490 7dbd
00000360: 2f35 73bd 927a 18bf 2d75 f43e 0d5f 173e
00000370: 91cf d5be bbf5 1bbd 7baf 86bd c2a2 69be
00000380: d5d0 4dbf b4f0 15bf d9ef 90ba 86ab 1d3e
00000390: 31f5 84bd 5ed5 94bd 8efc 2dbe dc40 bd3d
000003a0: 9988 663c d584 113d e69e f0bc 6621 5fbe
000003b0: 314d 353d 03a1 d5bd cb63 f3be 1fbb 9f3d
000003c0: de31 ecbe 7525 59bf 91f3 46bf 4627 c03d
000003d0: 02ca 213d 0e71 91be 0169 c2ba 14c3 a6be
000003e0: f1df 2bbd 0cde cebc 1617 c7bd 5aad bd3c
000003f0: 1c43 e0bd 1c29 7bbd 5e12 c3be d3a6 a1bd

net.2.bias f4 [128]
0.060972802 -0.08371247 0.030689962 0.0024956805 -0.094931215 0.05922497 0.28920642 -0.2720421
-0.13600764 0.24823199 -0.041362688 -0.0680596 -0.060914665 -0.13403349 -0.28755105 -0.14634778
-0.16437475 0.103151895 -0.11209336 0.22566256 0.15032862 -0.07585089 0.11636599 0.01786212
-0.06971652 0.061814543 0.0043368745 -0.14694491 -0.11331894 -0.008126873 0.13529256 -0.086752236
0.32248694 0.028896011 0.13562603 0.16212939 -0.15792634 0.10621326 0.1364381 -0.050116677
-0.26748702 -0.07106858 -0.026682483 0.30415007 -0.042546667 -0.008265632 0.3311994 0.08155665
-0.09850306 0.076969825 0.48490074 -0.09301145 0.042640716 0.011108795 0.07168416 0.25527447
0.13473551 -0.12723249 0.031474624 0.02633858 -0.04777198 0.11165259 -0.04078726 0.22470956
-0.04520175 0.012898397 -0.03512756 -0.087962836 -0.16354115 -0.08025573 -0.09723724 -0.23101489
-0.089587726 -0.08727647 -0.08350565 -0.011142606 0.28379366 -0.13554908 -0.1772628 -0.016322942
-0.0063844854 -0.073255576 -0.10654911 -0.060872167 0.12254555 0.34185 -0.08488525 0.039765086
-0.004057497 0.08796469 -0.17642662 0.19895418 -0.048144154 0.10505705 -0.5327545 -0.051704362
0.12238876 -0.13482031 0.18218157 -0.1412611 -0.121520005 -0.18206605 0.12268974 -0.12268218
0.14861237 0.055024333 0.31081802 -0.10269792 0.038488448 -0.009211055 -0.13695069 -0.1304344
-0.16340446 0.25523666 0.18489137 -0.07830938 0.19733852 0.022065252 -0.09400383 -0.11575574
-0.1566278 -0.07708115 0.09288828 0.026338136 -0.12286906 0.14335573 -0.16894446 -0.11868988
00000000: 9ebe 793d 7271 abbd 8469 fb3c 928e 233b
00000010: 4c6b c2bd e295 723d dd12 943e 1a49 8bbe
00000020: 9645 0bbe 8730 7e3e ec6b 29bd d562 8bbd
00000030: a881 79bd 1340 09be e439 93be 31dc 15be
00000040: db51 28be 4d41 d33d 3491 e5bd 1614 673e
00000050: bfef 193e b657 9bbd 4b51 ee3d 9553 923c
00000060: 89c7 8ebd 3f31 7d3d 571c 8e3b ba78 16be
00000070: c313 e8bd 9326 05bc 228a 0a3e 28ab b1bd
00000080: 021d a53e 54b7 ec3c 8de1 0a3e 3f05 263e
00000090: 71b7 21be 5686 d93d 6eb6 0b3e 2547 4dbd
000000a0: 0ff4 88be 678c 91bd 3995 dabc 8fb9 9b3e
000000b0: 6a45 2ebd 936c 07bc f892 a93e 2c07 a73d
000000c0: f9bb c9bd 5ba2 9d3d e944 f83e c97c bebd
000000d0: 08a8 2e3d aa01 363c 25cf 923d 56b3 823e
000000e0: 1bf8 093e 3c49 02be 89eb 003d 01c4 d73c
000000f0: 8dac 43bd 1daa e43d 8b10 27bd 431a 663e
00000100: 7825 39bd cc53 533c ebe1 0fbd dc25 b4bd
00000110: 5577 27be 1e5d a4bd 5124 c7bd 2b8f 6cbe
00000120: c579 b7bd 02be b2bd 0305 abbd 7a8f 36bc
00000130: 674d 913e 61cd 0abe 6184 35be b1b7 85bc
00000140: f234 d1bb 0507 96bd 6b36 dabd 1855 79bd
00000150: 29f9 fa3d f706 af3e 51d8 adbd b7e0 223d
00000160: c0f4 84bb d526 b43d 2ea9 34be a5ba 4b3e
00000170: ce32 45bd 2728 d73d 9962 08bf f4c7 53bd
00000180: f5a6 fa3d 560e 0abe ce8d 3a3e c0a6 10be
00000190: 7bdf f8bd 866f 3abe c244 fb3d cb40 fbbd
000001a0: d72d 183e 3261 613d 8a23 9f3e 4953 d2bd
000001b0: 10a6 1d3d f7e9 16bc cd3c 0cbe 9890 05be
000001c0: 8053 27be 61ae 823e 2a54 3d3e ab60 a0bd
000001d0: 1c13 4a3e 30c2 b43c 1485 c0bd 5811 edbd
000001e0: 0a63 20be b9dc 9dbd 363c be3d 13c3 d73c
000001f0: c6a2 fbbd d8cb 123e c7ff 2cbe ae13 f3bd

net.4.weight f4 [7, 128]
0.06360207 0.06223141 -0.46337393 -0.19460325 0.004681653 -0.10042757 0.27266848 0.02749342
-0.0043494194 0.3231922 -0.23674859 -0.038935248 0.019606674 0.49722615 0.19469826 -0.31299725
-0.40847105 -0.3309933 -0.021692244 0.25603738 0.41087338 -0.060140558 0.49904132 0.52246344
-0.1397092 -0.16098602 -0.416002 -0.2271519 -0.17526768 -0.050197493 -0.27819145 -0.01502988
0.48481798 0.29418513 -0.106004335 -0.2011012 -0.15235077 -0.11825679 -0.13528438 0.3230238
0.09620449 -0.031113826 -0.13327676 0.3490077 0.213667 0.23024562 0.0499554 -0.3569119
0.082201555 0.3311417 0.40972742 -0.31018278 0.53740114 -0.048850693 0.37601775 0.17646791
0.61969346 0.064711034 -0.2179953 -0.15613316 0.08587424 -0.5098667 0.0089759035 0.14946926
-0.12113402 -0.061493818 -0.026171857 0.1698807 -0.35783008 0.03651188 -0.006066667 -0.2155489
-0.04242394 -0.035300788 -0.17545988 0.3970443 0.14906833 0.01564863 0.28251672 0.06000512
0.17731299 -0.03369155 0.04472904 0.16584148 -0.4140938 0.49787778 -0.38983446 -0.2554531
-0.004279249 -0.017334722 -0.02234436 0.19277473 0.0022272873 -0.027132688 0.30581912 0.5287013
-0.23317969 -0.04286441 0.13743983 0.07434722 -0.042628672 0.014264746 -0.21559799 -0.29420426
-0.5784466 0.90996486 0.28958875 0.06099281 -0.096865505 -0.2039495 -0.048426896 0.04460041
0.018318748 0.41242304 0.111968026 -0.019107211 0.61632115 -0.39867115 0.0779374 0.034294892
-0.097505055 0.018786909 -0.17599171 0.34910384 -0.06286588 -0.1640287 -0.342171 -0.0042251926
-0.22449446 0.42448902 0.2490513 0.2522578 0.035433378 -0.1767671 0.19662796 0.13034214
0.06343507 0.21949911 -0.110803194 -0.09204534 0.29585335 0.026944175 0.17329197 0.016411679
-0.16249236 -0.11450394 -0.0025176315 0.14737366 0.30749568 -0.017183881 0.41134804 0.04971174
0.022911584 0.059519988 0.18458335 0.18039258 0.39148653 0.073581226 0.016356193 0.03656554
0.16327338 0.11489373 -0.081801146 0.12878644 0.098081775 0.103115134 -0.069927804 0.64116055
0.22588499 -0.02593305 0.1528239 0.3143039 -0.07194436 0.3987478 0.6041543 -0.025266431
0.010033894 -0.3992767 0.35505402 -0.18555959 0.14266759 0.02735714 0.31490317 0.017592188
-0.1327082 0.06138085 -0.14657778 -0.21403597 0.06917803 0.28773484 0.069266 -0.17471282
-0.080251604 0.20450345 0.07336764 0.10586158 -0.35190144 0.26595348 -0.01851686 -0.03269978
0.008622757 0.09766313 -0.14961414 0.05587467 0.3998202 -0.038423512 -0.22403781 0.17661119
-0.049332585 0.08187499 -0.02792907 0.049698506 0.19454002 -0.18145168 0.2085185 0.0055476353
0.06081252 -0.26685172 0.5428023 -0.3109368 0.22655156 -0.14940754 0.2648202 0.43262538
0.5610555 0.035258513 0.30150977 -0.093417265 -0.049177792 -0.08430506 0.0146924965 -0.100687794
0.2847372 0.13380651 -0.26819143 0.0018057536 0.1865994 0.2622034 0.010607571 0.0012189675
0.015517066 0.021718362 0.1338065 0.012831558 0.17358609 0.21298347 -0.05330846 0.1043564
-0.1026609 0.054141745 -0.5156892 -0.1256116 0.06879615 0.40990487 0.0008842316 -0.005402377
00000000: cd41 823d 5de6 7e3d 593f edbe 1346 47be
00000010: 8d68 993b f8ac cdbd 349b 8b3e e139 e13c
00000020: 9385 8ebb 7379 a53e 396e 72be 917a 1fbd
00000030: 2d9e a03c 6d94 fe3e fb5e 473e 2d41 a0be
00000040: 1e23 d1be f477 a9be efb3 b1bc 5517 833e
00000050: ff5d d23e f255 76bd 5882 ff3e 2ac0 053f
00000060: ee0f 0fbe 85d9 24be 37fe d4be 829a 68be
00000070: 5f79 33be e39b 4dbd 1c6f 8ebe e33f 76bc
00000080: 103a f83e 6f9f 963e cd18 d9bd 79ed 4dbe
00000090: d701 1cbe 9e30 f2bd fd87 0abe 6063 a53e
000000a0: dc06 c53d 6ce2 febc b479 08be 23b1 b23e
000000b0: 86cb 5a3e 82c5 6b3e 099e 4c3d 28bd b6be
000000c0: 4a59 a83d 688b a93e cbc7 d13e 47d0 9ebe
000000d0: 1f93 093f aa17 48bd 6685 c03e 01b4 343e
000000e0: 3ba4 1e3f 3887 843d 293a 5fbe 5fe1 1fbe
000000f0: d5de af3d a086 02bf ab0f 133c 780e 193e
00000100: 1d15 f8bd f1e0 7bbd 5d66 d6bc 35f5 2d3e
00000110: 8135 b7be 7b8d 153d e4ca c6bb dab8 5cbe
00000120: bac4 2dbd 8f97 10bd c1ab 33be 6449 cb3e
00000130: 5ea5 183e 8e31 803c 08a6 903e eec7 753d
00000140: 8991 353e 2700 0abd cc35 373d 59d2 293e
00000150: 1a04 d4be d6e9 fe3e 6298 c7be c0ca 82be
00000160: f138 8cbb 8c01 8ebc 850b b7bc bd66 453e
00000170: aef7 113b 5f45 debc 5394 9c3e f858 073f
00000180: a8c6 6ebe 9792 2fbd 07bd 0c3e 5b43 983d
00000190: 679b 2ebd aeb6 693c b8c5 5cbe f1a1 96be
000001a0: 1415 14bf 75f3 683f fa44 943e 99d3 793d
000001b0: 6c61 c6bd 23d8 50be 485b 46bd ebae 363d
000001c0: 3311 963c 1d29 d33e 7e4f e53d ba86 9cbc
000001d0: 39c7 1d3f a01e ccbe a59d 9f3d cd78 0c3d
000001e0: bbb0 c7bd 01e7 993c 2c37 34be bdbd b23e
000001f0: d4bf 80bd 24f7 27be 0a31 afbe 7c73 8abb
00000200: e0e1 65be a056 d93e 4e07 7f3e ef27 813e
00000210: 9722 113d 6f02 35be d758 493e 6978 053e
00000220: 3fea 813d 60c4 603e c9ec e2bd 4482 bcbd
00000230: 177a 973e 08ba dc3c 7373 313e c971 863c
00000240: 6664 26be 0b81 eabd d9fe 24bb 1fe9 163e
00000250: 1370 9d3e 36c5 8cbc 369c d23e 8a9e 4b3d
00000260: 13b1 bb3c 3bcb 733d 6b03 3d3e d5b8 383e
00000270: ec70 c83e c1b1 963d 6cfd 853c bfc5 153d
00000280: 2331 273e 674d eb3d 5c87 a7bd 98e0 033e
00000290: 19df c83d 072e d33d 4f36 8fbd 1923 243f
000002a0: 654e 673e 8c71 d4bc de7d 1c3e 71ec a03e
000002b0: 9157 93bd ac28 cc3e dba9 1a3f 8cfb cebc
000002c0: 3465 243c ff6d ccbe a4c9 b53e 5503 3ebe
000002d0: 7417 123e 151c e03c fd3a a13e 7e1d 903c
000002e0: a9e4 07be 7c6a 7b3d 7c18 16be 3f2c 5bbe
000002f0: 36ad 8d3d fb51 933e 55db 8d3d ebe7 32be
00000300: f45a a4bd 5a69 513e c641 963d f5cd d83d
00000310: 6d2c b4be 0e2b 883e acb0 97bc 34f0 05bd
00000320: 7746 0d3c 9b03 c83d 7334 19be d7dc 643d
00000330: 3cb5 cc3e f961 1dbd 2b6a 65be 90d9 343e
00000340: f710 4abd 13ae a73d 81cb e4bc a990 4b3d
00000350: 8035 473e 78ce 39be e085 553e f0c8 b53b
00000360: 8d16 793d caa0 88be 17f5 0a3f 1c33 9fbe
00000370: 22fd 673e 4afe 18be 8396 873e 1381 dd3e
00000380: 55a1 0f3f 3b6b 103d 7d5f 9a3e 8d51 bfbd
00000390: a76e 49bd 22a8 acbd ccb8 703c 6735 cebd
000003a0: 13c9 913e 9304 093e 6350 89be 09af ec3a
000003b0: ea13 3f3e 863f 863e 61cb 2d3c c3c5 9f3a
000003c0: 4b3b 7e3c b5ea b13c 9204 093e 743b 523c
000003d0: 8dc0 313e 5718 5a3e f959 5abd cfb8 d53d
000003e0: e13f d2bd bcc3 5d3d 3504 04bf 54a0 00be
000003f0: ffe4 8c3d 0ddf d13e c7cb 673a 6c06 b1bb

net.4.bias f4 [7]
-0.042851474 -0.0955032 -0.05957468 -0.059364755 -0.048867602 -0.07573135 -0.07229862
00000000: 0785 2fbd 2f97 c3bd 9404 74bd 7528 73bd
00000010: 6529 48bd 0a19 9bbd 4d11 94bd
