qnet4_0.pt (torch, 102065 bytes, 6 tensors)

net.0.weight f4 [128, 57]
0	0xbef75741	-0.48308757
1	0xbe28e9fb	-0.16495506
2	0x3ecba8cf	0.39777228
3	0x3e891cde	0.26779836
4	0x3da6a735	0.08137361
5	0x3d849660	0.06473994
6	0xbe03b581	-0.12862207
7	0x3d1f38a3	0.038872372
8	0xbe18434f	-0.14869426
9	0xbee36a05	-0.44416824
10	0x3e39ba59	0.18137492
11	0xbe6a7cde	-0.22899196
12	0xbea7b830	-0.3275771
13	0x3ea7313c	0.3265475
14	0x3e7acf1d	0.2449307
15	0xbd422810	-0.047401488
16	0x3dcd2b22	0.100179926
17	0xbe7f51c9	-0.24933542
18	0x3ea9722f	0.33094928
19	0x3e981bff	0.2970886
20	0x3e15df63	0.14635997
21	0xbd766e14	-0.060163572
22	0xbe00cc84	-0.12578017
23	0x3dad492a	0.084612206
24	0xbe0630ee	-0.13104603
25	0x3df51197	0.119662456
26	0xbe429087	-0.19000445
27	0x3e246c1b	0.16056864
28	0x3eb70ed9	0.35753515
29	0x3db0d343	0.08634045
30	0xbe511807	-0.20419322
31	0xbe8e4669	-0.27788094
32	0xbebb0092	-0.36523873
33	0x3c5f1415	0.013615628
34	0xbd1e702d	-0.038681198
35	0xbe6aa151	-0.229131
36	0xbec4c8d5	-0.38434473
37	0xbc83b36e	-0.01607677
38	0x3eda89ee	0.42683357
39	0x3d93bd09	0.0721379
40	0x3e61c96f	0.22049497
41	0xbdc01073	-0.093781374
42	0x3d28e903	0.041237842
43	0x3e925dc3	0.2858716
44	0xbe954506	-0.29154223
45	0x3d3a6aea	0.045512117
46	0xbca28e49	-0.019843237
47	0xbe4ada67	-0.19809876
48	0xbe3acd10	-0.18242288
49	0x3df16640	0.11787081
50	0x3e7f1235	0.24909289
51	0xbf25877c	-0.6465986
52	0x3e0a8caf	0.13530229
53	0x3ee77bfa	0.45211774
54	0x3e6465ee	0.22304508
55	0xbe658975	-0.22415717
56	0x3e12be6f	0.14330457
57	0x3d0f2e0c	0.034956023
58	0xbd66fea0	-0.056395173
59	0x3cc4cdbc	0.024023883
60	0x3d02236f	0.031772073
61	0x3dec0a9f	0.11525463
62	0xbd3e6cd5	-0.04649051
63	0x3d88f2b3	0.06686916
64	0xbdb9852d	-0.090586044
65	0xbcc600f5	-0.024170378
66	0x3dc02240	0.09381533
67	0x3dd9fcdb	0.106439315
68	0x3db7e90e	0.089799985
69	0x3d2818d0	0.041039288
70	0x3d47496d	0.04865401
71	0xbd9add11	-0.07561696
72	0xbd0b496c	-0.034005567
73	0xbdbd86f8	-0.09254259
74	0x3dffc8b9	0.12489457
75	0x3db4d10f	0.08828937
76	0xbd643336	-0.0557129
77	0xbd6e07e3	-0.05811299
78	0x3da9ad73	0.08285036
79	0x3d9936b9	0.07481141
80	0xbd0e5b2f	-0.03475493
81	0x3de3d1f5	0.111240305
82	0xbde280a2	-0.11059691
83	0xbca34bee	-0.019933667
84	0x3c6c6811	0.014429108
85	0xbd97e026	-0.074158
86	0x3dda1e29	0.10650284
87	0xbd0ae83c	-0.033912882
88	0xbdc523d2	-0.09625973
89	0x3dca39f8	0.09874338
90	0xbce6aa5e	-0.02815741
91	0xbd35d9d6	-0.044397198
92	0x3df4f2ee	0.11960398
93	0xbd3a93dc	-0.045551166
94	0xbd9109b9	-0.070819326
95	0xbde36d2d	-0.11104808
96	0xbce796cc	-0.028270148
97	0xbdc6b89d	-0.09703181
98	0x3ddb56cf	0.10709917
99	0xbce67516	-0.028132003
100	0x3be11587	0.0068690213
101	0xbe026251	-0.12732817
102	0x3d638fe9	0.055557165
103	0x3d43ee66	0.047834776
104	0xbd206733	-0.03916092
105	0xbc68a402	-0.014199259
106	0xbdb3e11b	-0.0878317
107	0x3e05a98a	0.13052955
108	0xbd99c177	-0.075076036
109	0xbd2020c5	-0.03909375
110	0xbe04cad4	-0.12967998
111	0xbdf4e619	-0.1195795
112	0xbdd047a7	-0.101699166
113	0xbde465bc	-0.11152217
114	0x3e54b8e2	0.20773652
115	0x3e10acab	0.14128368
116	0xbdb05921	-0.0861075
117	0xbeb701f5	-0.3574368
118	0xbf1075c5	-0.564297
119	0x3e3ebd09	0.18626799
120	0x3ee86f50	0.45397425
121	0x3e8d57b0	0.27605963
122	0xbf341d91	-0.70357615
123	0x3e38684b	0.18008535
124	0x3e2286c7	0.15871726
125	0xbe741049	-0.23834337
126	0x3e7b316f	0.24530576
127	0x3e7f307c	0.24920839
128	0x3ec230cc	0.37927854
129	0x3e8a2772	0.2698322
130	0x3d248c5d	0.040172923
131	0x3ea8d5dc	0.32975662
132	0x3df3c1ba	0.11902185
133	0xbd0075fa	-0.03136251
134	0xbd945787	-0.07243257
135	0xbe93f9da	-0.2890156
136	0xbc233cf0	-0.009963259
137	0xb9b0acd8	-0.00033698115
138	0x3c118e39	0.008884006
139	0xbecda169	-0.4016221
140	0xbe2088fc	-0.15677255
141	0xbe281877	-0.16415583
142	0xbd908c41	-0.07058001
143	0x3e30cd55	0.17265828
144	0x3e9cecad	0.3064932
145	0xbe92f30b	-0.28701052
146	0x3effd645	0.49968162
147	0x3efae475	0.49002424
148	0xbd5394f5	-0.05165573
149	0xbec60909	-0.38678768
150	0xbed86928	-0.42267728
151	0xbde786f8	-0.1130504
152	0xbe09e107	-0.13464747
153	0xbebbb853	-0.36664066
154	0xbd13d5c5	-0.03609254
155	0x3e91f277	0.28505298
156	0x3e0412fd	0.12897868
157	0x3cceac95	0.025228778
158	0x3e880e9a	0.2657364
159	0x3e7d9a49	0.24765886
160	0x3e5b1cd9	0.21397723
161	0x3d08ea58	0.033426613
162	0x3d6fc009	0.05853275
163	0x3d10aa0a	0.035318412
164	0x3efc364f	0.49260184
165	0xbcf40cc4	-0.029791243
166	0xbebea5d8	-0.37235904
167	0x3e57c1db	0.21070044
168	0x3e496644	0.19667917
169	0x3da3085e	0.0796058
170	0xbe84c005	-0.2592775
171	0x3dbf4172	0.093386546
172	0xbeff55a8	-0.49870038
173	0xbd7a9b49	-0.061183248
174	0xbe0650bd	-0.13116737
175	0xbe797f8d	-0.24365063
176	0x3e825adc	0.25459945
177	0x3e716c83	0.2357655
178	0x3f559296	0.834268
179	0xbeffa74e	-0.4993233
180	0xbe83f2a6	-0.25771064
181	0xbe857456	-0.2606532
182	0xbf39db8c	-0.72600627
183	0x3ed6ba34	0.41938937
184	0xbdc9c189	-0.09851367
185	0x3ca675b8	0.020319805
186	0x3e91b493	0.2845808
187	0x3ee0e7aa	0.43926746
188	0x3e27e780	0.16396904
189	0x3e58140e	0.211014
190	0x3f388220	0.72073555
191	0x3f161b6c	0.5863559
192	0x3ea4bb6e	0.32174248
193	0xbd670e41	-0.056410078
194	0xbdea82b6	-0.114507124
195	0x3d2db3b0	0.04240769
196	0xbe7b080f	-0.24514793
197	0x3eef037f	0.46682355
198	0xbd1f25f1	-0.038854543
199	0x3e7dc8d7	0.24783646
200	0x3d8901d6	0.06689803
201	0xbd623974	-0.055230573
202	0x3d4aaa77	0.049478974
203	0xbda0fcde	-0.078607306
204	0xbd885d24	-0.0665839
205	0xbe7e74df	-0.2484927
206	0x3ddc5e9e	0.10760234
207	0x3eae6a2c	0.34065378
208	0x3d92d93a	0.07170339
209	0xbed18ea2	-0.40929133
210	0x3ed2e2dd	0.41188708
211	0x3f027ea6	0.509745
212	0xbd50bcd3	-0.050961327
213	0x3d8e757a	0.069560006
214	0x3f51c998	0.8194823
215	0x3d4b6bac	0.04966323
216	0xbd92be37	-0.07165187
217	0xbe44e86e	-0.1922929
218	0x3d7ed7a2	0.062217362
219	0x3e8eaf11	0.2786794
220	0x3e1cd4ca	0.15315548
221	0x3e4aff8f	0.1982405
222	0xbecf8bc8	-0.40536332
223	0xbdbd79c3	-0.0925174
224	0x3d1d22dc	0.038363323
225	0x3dcf3aea	0.10118659
226	0xbe89ae56	-0.2689082
227	0xbda56f85	-0.08077911
228	0xbdb8eac4	-0.09029153
229	0xbd2ea613	-0.04263885
230	0x3ba2225e	0.0049479445
231	0xbe8c9d5a	-0.274638
232	0x3e88ba78	0.26704764
233	0x3e143d0a	0.1447641
234	0xbe81ab62	-0.25326067
235	0x3d70717f	0.05870199
236	0xbe1d19ed	-0.15341921
237	0xbd1b9d96	-0.037992083
238	0xbe9cc2f7	-0.30617496
239	0xbd6744f6	-0.05646225
240	0xbe4137f9	-0.18869008
241	0x3da88a37	0.082294874
242	0xbc7dcb23	-0.015490326
243	0xbe589336	-0.21149907
244	0xbd005d04	-0.031338707
245	0xbdf7f44d	-0.121071436
246	0x3d1789c2	0.03699661
247	0x3d452a5a	0.048136093
248	0x3dae5ab6	0.085133955
249	0x3ceeb84f	0.02914062
250	0xbeaa55d3	-0.33268604
251	0x3eab0e0a	0.33409148
252	0xbe99f1c8	-0.30067277
253	0xbe95e992	-0.29279763
254	0x3eec1c99	0.46115568
255	0xbecad58e	-0.39616054

net.0.bias f4 [128]
0	0xbed6d01c	-0.4195565
1	0x3d7bf566	0.061513327
2	0xbe8a4411	-0.27005056
3	0x3e8d824b	0.27638468
4	0xbe968327	-0.29396936
5	0x3e0979f6	0.1342543
6	0xbe044aef	-0.1291921
7	0x3dd94ac4	0.106099635
8	0x3cc9c93e	0.024632093
9	0x3e8f92e9	0.2804177
10	0xbf0b29d8	-0.54360723
11	0x3b59ff51	0.0033263753
12	0x3dd1859b	0.10230561
13	0x3d2bcfe2	0.0419463
14	0xbe3b704f	-0.18304561
15	0xbe036d6b	-0.12834708
16	0x3dd012c3	0.101598285
17	0x3c51e720	0.012811452
18	0x3f0f3437	0.5593905
19	0xbe1998ec	-0.14999741
20	0xbc992cbe	-0.018698093
21	0xbefc94b0	-0.4933219
22	0x3dd75b5a	0.10515471
23	0x3d5e4be5	0.054271597
24	0xbecb7471	-0.39737275
25	0xbe4366dc	-0.19082206
26	0x3e55a145	0.208623
27	0x3e1f5b4d	0.15562172
28	0x3d0b1551	0.033955876
29	0x3e00bb6b	0.12571494
30	0xbe2aa3cd	-0.16664048
31	0x3cba26eb	0.022723636
32	0x3e300ea0	0.17193079
33	0xbdea3436	-0.1143574
34	0xbe88f9a4	-0.2675296
35	0x3e378f89	0.17925848
36	0x3e339610	0.17537713
37	0xbed55a3b	-0.41670403
38	0xbd2769a9	-0.04087225
39	0x3e011d5c	0.12608856
40	0x3da4b61f	0.08042549
41	0x3e0e607b	0.13903992
42	0x3e6654f2	0.22493342
43	0xbe9da3bd	-0.30788985
44	0x3e38ad3e	0.18034837
45	0x3e97a844	0.29620564
46	0x3e8bff6d	0.27343312
47	0xbe6d3196	-0.23163447
48	0xbed800b7	-0.42188045
49	0xbc92c837	-0.017917736
50	0xbf04fe50	-0.5195055
51	0xbec45d53	-0.3835245
52	0xbeb8b6c4	-0.3607694
53	0xbcba9bc3	-0.022779351
54	0xbd86d41c	-0.065834254
55	0x3e50f7fa	0.20407096
56	0xbe8b8627	-0.27250788
57	0xbe3f60e2	-0.18689302
58	0xbd978a0b	-0.073993765
59	0xbee0c68c	-0.4390148
60	0x3dc1aebd	0.09457157
61	0xbeba75a4	-0.36417878
62	0x3ce32445	0.027727256
63	0x3e3fe83a	0.18740931
64	0x3e62455b	0.2209677
65	0xbcd5658f	-0.026049403
66	0x3e4f797a	0.20261183
67	0xbca22bde	-0.019796308
68	0x3e8b2c62	0.271823
69	0x3e999cb9	0.30002382
70	0xbe02af0a	-0.12762085
71	0xbe94b993	-0.29047832
72	0x3da28c46	0.07936911
73	0x3c5ce722	0.013482841
74	0xbc321ebd	-0.010871586
75	0x3d01572f	0.031577285
76	0x3e48b7d9	0.19601382
77	0xbe50dad1	-0.20395972
78	0xbdc14486	-0.09436898
79	0x3e0330a8	0.1281153
80	0x3c3a9582	0.0113881845
81	0xbdcb44a4	-0.099252015
82	0x3e8a0f77	0.26964924
83	0xbdb0df15	-0.086362995
84	0x3db6519a	0.08902283
85	0xbcd50ba8	-0.026006535
86	0x3d0630f9	0.032761548
87	0xbec2800e	-0.37988323
88	0xbda1b7fd	-0.07896421
89	0x3e3f90e1	0.1870761
90	0xbdb2afc7	-0.08724933
91	0xbea3b329	-0.31972626
92	0xbe4403cd	-0.19142075
93	0xbde5e747	-0.11225753
94	0xbf1af758	-0.60533667
95	0x3e36c659	0.17849101
96	0x3e2ad909	0.16684355
97	0x3e871c4c	0.26388776
98	0xbef9f8e0	-0.4882269
99	0xbe5210d9	-0.2051424
100	0xbb30a2dd	-0.0026952543
101	0xbe57bbe0	-0.21067762
102	0xbdc43be2	-0.09581734
103	0xbe387c04	-0.18016058
104	0x3e1179d1	0.14206626
105	0x3ece4158	0.40284228
106	0xbd054366	-0.03253498
107	0xbe925523	-0.2858058
108	0x3dc70f75	0.09719745
109	0xbdf91985	-0.121630706
110	0x3e0999d0	0.13437581
111	0xbeee06c7	-0.46489546
112	0x3d8ee73c	0.06977698
113	0xbeb896c2	-0.3605252
114	0x3ec2b657	0.3802974
115	0xbdd7420b	-0.105106436
116	0x3e8effa6	0.2792942
117	0xbda53a5e	-0.08067773
118	0x3e8ceb73	0.27523383
119	0xbf0384d7	-0.5137457
120	0xbdf0daff	-0.1176052
121	0xbefd59e3	-0.4948264
122	0x3dc6b8f2	0.09703244
123	0x3e06f0e2	0.13177827
124	0xbdf297bd	-0.11845348
125	0xbeaa5550	-0.33268213
126	0x3e4b5fc9	0.19860758
127	0xbf0b94d4	-0.5452397

net.2.weight f4 [128, 128]
0	0x3e3be6b6	0.18349728
1	0xbcf4069b	-0.029788306
2	0xbcec50fb	-0.028847208
3	0xbd2c9b58	-0.042140335
4	0x3cc34e0e	0.02384093
5	0xbed0a433	-0.40750274
6	0x3c566bd6	0.0130872335
7	0xbe852356	-0.26003522
8	0x3e3b6145	0.18298824
9	0x3ecd2943	0.40070543
10	0x3dd97159	0.106173225
11	0xbc100667	-0.008790589
12	0x3cb39361	0.021920862
13	0x3c0a2707	0.008432156
14	0xbd44d953	-0.04805882
15	0xbd9422dd	-0.07233212
16	0xbe3686c0	-0.1782484
17	0x3e5b7d0f	0.21434425
18	0xbf67d90a	-0.9056555
19	0xbe4a84ea	-0.19777265
20	0x3e51dc82	0.20494273
21	0x3ddbdc2d	0.107353546
22	0x3dfa6b3a	0.12227483
23	0xbe87d0dc	-0.26526535
24	0x3d053606	0.032522224
25	0xbe0cb154	-0.1373952
26	0xbf83b82c	-1.029058
27	0x3e124dd2	0.14287499
28	0xbd653906	-0.055962585
29	0x3ea2eeb2	0.31822735
30	0x3d9d0594	0.076670796
31	0x3e93f61b	0.288987
32	0xbe24743c	-0.16059965
33	0xbfa2e771	-1.272688
34	0xbe816c1e	-0.252778
35	0xbee41122	-0.4454432
36	0x3d984143	0.07434323
37	0x3e504428	0.203385
38	0xbd467238	-0.04844877
39	0x3d940beb	0.07228836
40	0xbef69145	-0.48157707
41	0xbe5d5623	-0.2161489
42	0xbe7ee815	-0.2489322
43	0x3cc1016b	0.023560246
44	0xbc189379	-0.009312504
45	0xbf86e13b	-1.0537485
46	0xbd86375e	-0.06553529
47	0x3d8ebd47	0.069696955
48	0x3e32826b	0.17432563
49	0x3d8e7038	0.06954998
50	0x3e7c6c94	0.24650794
51	0x3db33f3b	0.08752295
52	0xbe2fbfa7	-0.17162953
53	0x3e71d0a2	0.23614743
54	0xbdbe7d68	-0.09301263
55	0xbce17254	-0.027520336
56	0x3e408026	0.18798885
57	0x3dbfa799	0.093581386
58	0x3d7ecef1	0.062209073
59	0x3b789b3b	0.0037934321
60	0x3e9b4278	0.3032415
61	0x3e730824	0.23733574
62	0xba8ef9bc	-0.0010908167
63	0xbc96f34f	-0.018426565
64	0xbe9062e9	-0.28200462
65	0x3ceea40a	0.029130954
66	0xbf26559f	-0.649744
67	0xbec1aaff	-0.37825772
68	0xbf1ccc33	-0.61249083
69	0x3cbf2443	0.02333272
70	0x3bada66a	0.005299379
71	0x3d947dd3	0.072505616
72	0xbf11500d	-0.5676277
73	0xbd94a9c9	-0.072589464
74	0xbd159a67	-0.036524203
75	0xbe5dade1	-0.21648361
76	0x3e773b06	0.2414361
77	0xbe6ee229	-0.23328461
78	0x3bcea001	0.006305695
79	0xbec35049	-0.3814719
80	0x3e1494b2	0.14509848
81	0x3c595916	0.013265869
82	0xbe19b7ee	-0.1501157
83	0x3e41c0c8	0.18921196
84	0xbd3a603b	-0.04550193
85	0x3d3233db	0.043506484
86	0x3db43ae0	0.08800292
87	0xbf32b798	-0.6981139
88	0xbe856802	-0.26055914
89	0xbddc7e42	-0.10766269
90	0x3be5e614	0.007015953
91	0xbed99767	-0.42498323
92	0xbe6f03ee	-0.23341343
93	0x3ed62256	0.4182307
94	0xbd95933d	-0.07303474
95	0xbeb57f9a	-0.35448915
96	0xbbf1fdc8	-0.0073849894
97	0xbddd7c7d	-0.1081476
98	0x3d788fff	0.0606842
99	0xbecb3e6d	-0.39696065
100	0xbcf93f18	-0.030425593
101	0x3dc443bc	0.09583232
102	0x3f11f7df	0.57018846
103	0x3c8be725	0.017077992
104	0xbe5e3d2e	-0.21703026
105	0x3de2427c	0.11047837
106	0xba3160fc	-0.0006766466
107	0xbf5f45fc	-0.8721616
108	0xbbf0b1ad	-0.0073453994
109	0x3caf994c	0.021435402
110	0xbebed573	-0.37272224
111	0x3e6f44fb	0.23366158
112	0xbfb8c7b3	-1.4435943
113	0xbde3d5ac	-0.11124739
114	0xbe035a5d	-0.1282744
115	0xbd70bc22	-0.058773167
116	0x3cca09b0	0.024662822
117	0x3d13ae91	0.03605515
118	0x3ddbf4e7	0.10740071
119	0x3e27b8e9	0.16379131
120	0xbf4dda83	-0.8041155
121	0x3e69228b	0.22767083
122	0x3cbfdb7b	0.023420086
123	0x3e204ac1	0.15653516
124	0x3c23000a	0.00994874
125	0xbe9569b2	-0.29182202
126	0xbd79ae61	-0.060957316
127	0x3dd6890d	0.10475359
128	0xbd43fdf3	-0.047849607
129	0x3d203db5	0.03912135
130	0x3e6057c9	0.21908487
131	0x3de1c007	0.110229544
132	0x3e6b214d	0.22961922
133	0x3d284150	0.04107791
134	0xbcbb60b6	-0.022873264
135	0x3e18f265	0.14936216
136	0x3e268f8a	0.16265693
137	0xbe653d11	-0.22386576
138	0xbdecbc7b	-0.11559387
139	0xbc80323d	-0.015648955
140	0xbe7250fa	-0.23663703
141	0x3edfe6e4	0.43730843
142	0x3e91a691	0.28447393
143	0x3cf6cfc1	0.030128362
144	0x3c902303	0.01759482
145	0x3ea99c44	0.33127034
146	0xbe827f66	-0.25487822
147	0xbe12632e	-0.14295647
148	0xbe903fbd	-0.28173628
149	0xbe36f846	-0.17868146
150	0x3ea45093	0.32092723
151	0x3d14668e	0.036230616
152	0xbb9c46d8	-0.0047691874
153	0x3e00a2bf	0.12562083
154	0xbe55a0ef	-0.20862173
155	0xbe9d8163	-0.30762777
156	0x3cb8df46	0.022567403
157	0xbe1e6618	-0.15468633
158	0xbdd53a63	-0.10411527
159	0x3ea38f12	0.3194509
160	0xbecd130f	-0.40053603
161	0xbe0a3ec5	-0.13500507
162	0xbdcb84eb	-0.099374615
163	0x3e14a7a8	0.14517081
164	0x3c83a279	0.016068684
165	0xbdefd699	-0.11710853
166	0xbd46f495	-0.048573095
167	0x3e77d8df	0.24203824
168	0x3ab9524d	0.0014138907
169	0x3dec910d	0.11551104
170	0xbe353fb2	-0.17700079
171	0xbd7de4fd	-0.06198596
172	0xbd815a62	-0.06316067
173	0x3e9efd5d	0.31052676
174	0x3e484325	0.19556864
175	0xbe2fb490	-0.17158723
176	0xbd153f60	-0.036437392
177	0x3d1c5998	0.03817138
178	0xbd9edea8	-0.07757312
179	0x3d3a8a31	0.045541946
180	0xbe3619de	-0.17783305
181	0xbe08f66b	-0.13375251
182	0x3d8cb0f0	0.06869686
183	0xbd1bf435	-0.03807469
184	0x3eae428b	0.34035143
185	0x3ecc9bff	0.39962766
186	0x3ed528d0	0.416327
187	0x3d38f284	0.045153156
188	0xbe15ea4c	-0.14640158
189	0xbe881141	-0.26575664
190	0x3d3748b9	0.044747088
191	0xbe2c2730	-0.16811824
192	0xbe3f294b	-0.18668096
193	0xbcb64496	-0.022249501
194	0x3d8656c0	0.06559515
195	0x3e5a7805	0.21334846
196	0xbf0be265	-0.54642326
197	0x3dd4fb10	0.10399449
198	0xbdd44815	-0.10365311
199	0x3db2b119	0.08725185
200	0x3dd8824a	0.10571726
201	0xbe80b4a1	-0.2513781
202	0x3e1135c3	0.14180665
203	0x3e203ceb	0.15648238
204	0x3e1066a8	0.1410166
205	0x3c1ed576	0.009694448
206	0xbd8ad9a9	-0.06779797
207	0xbd6fb322	-0.058520444
208	0xbe2b18be	-0.16708657
209	0x3d2a8a5a	0.04163585
210	0xbc71fe0d	-0.014770043
211	0x3db05755	0.08610407
212	0x3c3e1f27	0.011604107
213	0xbe0e79c0	-0.13913631
214	0x3df5672a	0.119825676
215	0x3c47ded1	0.01219912
216	0xbe453e09	-0.19261946
217	0xbe1975b1	-0.14986302
218	0x3ea1f1ce	0.31629795
219	0xbe2d4b0f	-0.16923164
220	0x3dffc100	0.12487984
221	0xbdc11ca8	-0.09429294
222	0x3e24e00e	0.16101095
223	0x3b818cf1	0.003953569
224	0x3e4c0e02	0.19927219
225	0x3e9f5582	0.31119925
226	0xbe7de0ab	-0.24792735
227	0x3e1415df	0.14461468
228	0xbe201d13	-0.15636091
229	0xbea270fe	-0.3172683
230	0xbeabad6c	-0.33530748
231	0x3e2fb947	0.17160521
232	0xbdcc3909	-0.09971816
233	0xbe85521c	-0.26039207
234	0x3cfbba65	0.030728528
235	0x3d6371a3	0.055528294
236	0x3e97cfd8	0.2965076
237	0x3d759296	0.05995425
238	0x3da27734	0.079328924
239	0xbd973dba	-0.0738482
240	0xbdb03f76	-0.08605854
241	0x3e216a1c	0.15763134
242	0xbda631fa	-0.08115001
243	0x3d8fa2b2	0.070134535
244	0xbe398533	-0.18117218
245	0xbd3d7dbd	-0.04626249
246	0xbccc825a	-0.0249645
247	0xbdf969f0	-0.12178409
248	0x3d0669a8	0.032815605
249	0x3d6a431c	0.057192907
250	0xbd988f90	-0.074492574
251	0xbeefd68f	-0.46843383
252	0xbd5ceaaf	-0.05393475
253	0x3e8064bf	0.25076863
254	0xbe94afc0	-0.29040337
255	0xbd8c58ba	-0.06852861

net.2.bias f4 [128]
0	0xbcaba133	-0.02095089
1	0x3e053c92	0.13011387
2	0x3d8e1a72	0.06938638
3	0xbdd72953	-0.10505929
4	0x3d814225	0.06311444
5	0xbdcce4d7	-0.10004585
6	0xbc2ecade	-0.0106684845
7	0xbe646716	-0.22304949
8	0x3d7c0710	0.061530173
9	0x3de6b078	0.112641275
10	0x3e39ea9c	0.18155903
11	0xbbbf2e3f	-0.0058343704
12	0xbe0b28ea	-0.13589826
13	0x3d457f70	0.048217237
14	0xbdfa1fea	-0.122131184
15	0x3e4dc384	0.20094115
16	0xbd6b7ee6	-0.057494067
17	0x3e391554	0.18074542
18	0x3d11f047	0.035629537
19	0xbd1e196d	-0.038598467
20	0xbdd4811d	-0.10376189
21	0xbd584534	-0.052800372
22	0x3ce878df	0.028377948
23	0xbd9ef455	-0.077614464
24	0xbd97c391	-0.07410348
25	0x3e828d2f	0.2549834
26	0xbcd7104c	-0.026252888
27	0xbd61a031	-0.05508441
28	0xbdcca746	-0.099928424
29	0xbdfb6ae5	-0.12276248
30	0x3e9d6410	0.30740404
31	0x3d865792	0.065596715
32	0x3df5d7e8	0.120040715
33	0xbdf05a6b	-0.11735996
34	0x3e5bba2c	0.21457738
35	0xbeaaba70	-0.33345366
36	0xbddf78b1	-0.10911692
37	0x3cb98e5b	0.022650888
38	0x3e497784	0.19674498
39	0x3e6a6be8	0.22892725
40	0xbe0e182c	-0.13876408
41	0xbcc22f4b	-0.023704192
42	0x3e61770b	0.22018068
43	0xbdeb9969	-0.1150387
44	0x3bc2142d	0.0059228153
45	0xbbbce2af	-0.0057643275
46	0xbddc88e6	-0.10768299
47	0x3d97e4e2	0.07416703
48	0x3e9ebb4b	0.31002268
49	0x3e150ed9	0.14556445
50	0xbdb2c508	-0.08728987
51	0x3c65ca0d	0.014025223
52	0xbd37946b	-0.044819277
53	0xbde926c2	-0.113843456
54	0xbe02f43f	-0.12788485
55	0x3e80dde8	0.251693
56	0x3c08f14d	0.008358312
57	0xbd1665ba	-0.036718108
58	0xbdd93123	-0.10605075
59	0x3dc052af	0.09390771
60	0x3deedc98	0.11663169
61	0xbc1a3785	-0.009412651
62	0xbe777ac0	-0.24167919
63	0x3dbdc260	0.0926559
64	0xbdcd9802	-0.10038759
65	0xbe304e94	-0.17217475
66	0x3e727944	0.23679072
67	0x3aebf838	0.0018003052
68	0x3e84fdb7	0.2597482
69	0xbc07bb4c	-0.008284401
70	0x3d8ed4d6	0.06974189
71	0x3c52ea1b	0.012873198
72	0x3dd8b4d4	0.10581365
73	0xbe2015e9	-0.15633358
74	0xbdf7a524	-0.12092045
75	0x3b8d2bc4	0.004308196
76	0xbcbb1a99	-0.022839831
77	0x3e79fcb7	0.2441281
78	0x3e27f4f1	0.16402031
79	0x3e98b53e	0.29825777
80	0x3ddd9f31	0.10821379
81	0xbe6ad93b	-0.2293443
82	0xbc200576	-0.009766927
83	0xbd83de9d	-0.064389445
84	0xbdd13e76	-0.102169916
85	0x3e5b09ca	0.21390453
86	0xbdfe0043	-0.12402394
87	0xbea73741	-0.32659343
88	0x3e7ab5a7	0.24483357
89	0x3e2c2ecc	0.16814727
90	0x3df0a70e	0.11750613
91	0xbbfa21e5	-0.007633435
92	0xbe9868e1	-0.29767516
93	0xbd10c126	-0.03534045
94	0xbd42bbad	-0.047542263
95	0x3deba8f7	0.11506837
96	0xbe027eac	-0.12743634
97	0x3c9d41c5	0.0191964
98	0x3d828982	0.06373884
99	0xbdaf66b1	-0.08564509
100	0x3e093bb3	0.1340168
101	0xbca18f62	-0.01972169
102	0x3935e140	0.00017345417
103	0xbda6b16e	-0.08139311
104	0xbe016d7a	-0.12639418
105	0x3e202b7e	0.15641591
106	0x3e70b818	0.23507726
107	0xbd83475e	-0.064100966
108	0xbdb26757	-0.08711117
109	0xbd9a72b7	-0.07541411
110	0x3e304a0c	0.17215747
111	0xbd70ad0c	-0.05875878
112	0xbe0298b1	-0.1275356
113	0xbdfbdfc9	-0.12298543
114	0x3e3576da	0.1772112
115	0x3d0d9a81	0.034571175
116	0xbdf4ccd6	-0.11953132
117	0xbd83ad67	-0.06429558
118	0x3d0e4bab	0.03474013
119	0xbe46a9cf	-0.19400714
120	0x3d678728	0.05652538
121	0x3e01bad2	0.12668923
122	0xbdff475b	-0.12464782
123	0xbdac0ee0	-0.08401275
124	0xbe098916	-0.134312
125	0x3e102c3a	0.14079371
126	0xba927e4e	-0.0011176558
127	0xbdd39720	-0.10331559

net.4.weight f4 [7, 128]
0	0x3e8e7e7c	0.27830875
1	0xbd0ee014	-0.034881666
2	0x3f150d40	0.5822334
3	0xbe553bb1	-0.20823552
4	0xbe90d895	-0.2829024
5	0x3f1eb5bd	0.6199606
6	0xbe4f0006	-0.20214853
7	0x3ec5284e	0.38507313
8	0xbe8467d2	-0.2586046
9	0x3eb67f16	0.35643834
10	0xbeb2a078	-0.34888053
11	0x3eeb4cae	0.4595694
12	0xbd9c43e5	-0.07630137
13	0x3edb5774	0.4284016
14	0xbcb49de9	-0.022047954
15	0xbeb60108	-0.35547662
16	0xbc6f31cd	-0.014599276
17	0x3ea032f5	0.31288877
18	0x3cd1a978	0.025593504
19	0xbe3986df	-0.18117855
20	0x3d8b6682	0.06806661
21	0x3e9a6250	0.3015313
22	0x3dcb2770	0.099196315
23	0xbe631f0e	-0.22179815
24	0x3e5551ab	0.20831935
25	0x3f3eb4e8	0.7449479
26	0x3d8b0b54	0.0678927
27	0x3e110170	0.14160705
28	0xbdc6d6fb	-0.09708973
29	0x3e91215d	0.28345767
30	0x3dc87c1b	0.09789296
31	0x3e7b61cd	0.24549027
32	0x3d46f9e2	0.04857815
33	0xbcec6cca	-0.028860468
34	0xbcbf3459	-0.023340391
35	0x3de55a4c	0.111988634
36	0xbdb18c1d	-0.086693026
37	0x3f075a8f	0.52872556
38	0x3ebde010	0.3708501
39	0x3eee3914	0.46527922
40	0xbd62eb0e	-0.055399947
41	0xbefe0735	-0.49614874
42	0x3e10e8db	0.14151327
43	0xbebc3b2c	-0.36763895
44	0xbe1a6d6d	-0.15080805
45	0x3e08d1cf	0.13361286
46	0xba8c5cb1	-0.0010708777
47	0xbdbe7925	-0.0930045
48	0x3ee0e202	0.4392243
49	0x3ebbd57a	0.36686307
50	0xbdb4a508	-0.0882054
51	0xbdea63bc	-0.11444804
52	0xbcd82560	-0.02638501
53	0x3c1cff3f	0.00958234
54	0xbc8d163e	-0.01722252
55	0x3f2759f2	0.6537162
56	0x3ea9749e	0.33096784
57	0xbe78147e	-0.24226567
58	0xbcdb89d5	-0.026799122
59	0xbf4316b6	-0.7620653
60	0xbcfdeb05	-0.030995855
61	0xbe5777da	-0.21041813
62	0x3e0820b2	0.13293722
63	0xbe224615	-0.15847047
64	0x3d1a01e8	0.037599474
65	0xbd076e1f	-0.033064004
66	0xbe469f2e	-0.1939666
67	0xbe1a9a26	-0.15097865
68	0x3f3c9c68	0.73676157
69	0xbe5a2a92	-0.21305302
70	0xbd35fec1	-0.044432405
71	0x3e2fad55	0.17155965
72	0xbf0e9db2	-0.55709374
73	0x3d00900c	0.031387374
74	0xbeaae564	-0.33378136
75	0xbdaa3c97	-0.08312338
76	0x3d06b5d4	0.03288825
77	0x3edfd762	0.43719012
78	0x3eeb4912	0.45954186
79	0x3f2ae3ef	0.6675405
80	0xbf291758	-0.66051245
81	0x3e8e96af	0.27849337
82	0x3e51701c	0.20452923
83	0xbda7e700	-0.08198357
84	0xbd765b03	-0.06014539
85	0xbed67777	-0.4188802
86	0xbdf7ae6a	-0.12093814
87	0x3e355046	0.17706403
88	0x3f2b0b4f	0.6681413
89	0xbea23f62	-0.31688982
90	0xbef0c6be	-0.47026628
91	0x3efe251c	0.49637687
92	0x3e50672d	0.20351858
93	0x3dca15cd	0.098674394
94	0x3e740026	0.23828182
95	0xbdff7f14	-0.1247541
96	0xbd62e22d	-0.05539148
97	0xbdf64651	-0.120251305
98	0x3c00ab38	0.007853322
99	0xbe59350c	-0.21211642
100	0x3ea237f1	0.31683305
101	0x3ebd6338	0.3698976
102	0xbe584398	-0.21119535
103	0x3d6197be	0.055076353
104	0x3d9a2f6e	0.07528578
105	0xbe88d919	-0.26728132
106	0xbdf107fd	-0.11769102
107	0xbe82aba6	-0.25521582
108	0xbda4ecac	-0.08052954
109	0xbd8ecb93	-0.069724225
110	0x3e562ee4	0.20916325
111	0xbe473ffa	-0.19457999
112	0x3d14be22	0.036314137
113	0xbd319dba	-0.04336331
114	0x3ec03696	0.37541646
115	0xbd6e8c26	-0.058239125
116	0xbcdf6c00	-0.027273178
117	0x3dd835d3	0.10557141
118	0xbddd0d76	-0.10793583
119	0xbdb538b5	-0.08848707
120	0x3f06d0cd	0.52662355
121	0xbd71d1e1	-0.059038047
122	0x3eba5089	0.36389568
123	0x3d167f7e	0.03674268
124	0x3eccd010	0.4000249
125	0xbe8f244c	-0.2795738
126	0xbe814391	-0.25246862
127	0x3ce859c8	0.028363124
128	0x3eb288ce	0.3487
129	0xbd67f5e3	-0.05663098
130	0xbc157b68	-0.009123661
131	0x3defc8a2	0.117081895
132	0xbe7505fa	-0.23928061
133	0x3ea0f61e	0.31437773
134	0xbe3f3d56	-0.18675742
135	0x3ec78733	0.38970336
136	0xbe95e210	-0.29274035
137	0x3e9e160d	0.30876198
138	0xbedb6a23	-0.42854413
139	0x3edae256	0.42750806
140	0xbd7b0613	-0.06128509
141	0xbdc9c048	-0.09851128
142	0x3cb8ec61	0.022573652
143	0xbc4dba66	-0.012556648
144	0xbe913a26	-0.28364676
145	0xbe7572a3	-0.23969512
146	0xbc95614d	-0.018234873
147	0xbd9a0a84	-0.07521537
148	0xbd770eed	-0.06031697
149	0xbe5ea5ba	-0.21742907
150	0x3da0c496	0.07849996
151	0xbe12b222	-0.14325765
152	0xbe3d2694	-0.18471748
153	0xbcbd88d6	-0.023136538
154	0xbd91833e	-0.071051106
155	0xbe9b3394	-0.30312788
156	0xbd2f3f54	-0.042785004
157	0x3eaca4ed	0.33719578
158	0xbe61b262	-0.22040704
159	0x3f35d4df	0.7102794
160	0xbde5a576	-0.112132
161	0x3bbec559	0.0058218655
162	0x3f6deb7a	0.92937434
163	0xbe0a24a3	-0.13490538
164	0x3d4dbef7	0.050230946
165	0x3e77f27c	0.24213594
166	0xbe474dec	-0.19463319
167	0x3da89af1	0.08232678
168	0xbcd4f58b	-0.02599599
169	0xbe889854	-0.26678717
170	0xbe325ea8	-0.17418921
171	0xbdc7025d	-0.09717248
172	0x3e5782f8	0.21046054
173	0x3d53bc54	0.051693276
174	0xbce667aa	-0.028125603
175	0x3e880501	0.26566318
176	0x3df66092	0.12030138
177	0xbf12da65	-0.57364494
178	0xbda48d72	-0.08034791
179	0xbe7bdc6e	-0.24595806
180	0xbd65beea	-0.056090273
181	0x3d36140f	0.044452723
182	0x3da9d330	0.08292234
183	0xbe0c4a0a	-0.13700119
184	0x3e606b74	0.2191599
185	0xbd6c47d2	-0.05768568
186	0x3a6072b7	0.0008562016
187	0x3ec594f9	0.3859022
188	0xbe251ef3	-0.16125087
189	0xbcbd01fa	-0.023072232
190	0x3e03d4e3	0.12874179
191	0x3ef68326	0.48146933
192	0xbd94d607	-0.07267385
193	0x3d1bea76	0.038065396
194	0xbd80205a	-0.062561706
195	0x3f12fe2a	0.57419074
196	0xbdc920ec	-0.098207325
197	0xbe201ceb	-0.15636031
198	0xbda49f27	-0.080381684
199	0xbe0a59c4	-0.13510805
200	0xbd62c8f0	-0.05536741
201	0x3dd83a4d	0.10557995
202	0xbd19816a	-0.037476934
203	0x3d7dd6b1	0.061972324
204	0x3d2e8c52	0.04261429
205	0x3f051513	0.5198528
206	0x3e813eed	0.2524332
207	0x3e068791	0.13137652
208	0x3ea70507	0.32621023
209	0x3e2f05d7	0.17092071
210	0x3c3ba68c	0.011453282
211	0x3e24c123	0.16089301
212	0xbd438350	-0.04773265
213	0x3f135f10	0.5756693
214	0xbd2eeb54	-0.042704895
215	0x3e874e36	0.26426858
216	0x3d8ab1d3	0.067721985
217	0xbd38b919	-0.045098398
218	0x3da5eadb	0.08101436
219	0x3e7d0905	0.24710472
220	0x3e092f75	0.1339701
221	0xbcab0ac8	-0.020879164
222	0x3e554b5a	0.20829526
223	0x3de7eaf0	0.11324108
224	0xbb7180fc	-0.0036850562
225	0x3d7144dc	0.05890356
226	0x3dd4ff58	0.104002655
227	0x3e0a4a8a	0.13504997
228	0xbdde638f	-0.10858833
229	0xbdca856f	-0.09888732
230	0xbc99d180	-0.018776655
231	0x3b2a72da	0.0026008398
232	0x3c604978	0.013689391
233	0x3e29e287	0.1659032
234	0xbd9bf0a9	-0.07614262
235	0xbd9900e4	-0.07470873
236	0xbe0b5feb	-0.13610809
237	0x3d9978b7	0.07493728
238	0x3f1c8433	0.6113922
239	0xbe05aeb2	-0.13054922
240	0x3b3ff140	0.0029288083
241	0x3d31063f	0.043218847
242	0xbcbf37e8	-0.023342088
243	0xbe46fef9	-0.19433202
244	0x3d9e6249	0.0773359
245	0xbd36e892	-0.04465539
246	0x3daa470c	0.08314332
247	0x3ecaad51	0.39585355
248	0x3e78955c	0.24275726
249	0xbe52cedc	-0.20586723
250	0x3e82cd14	0.25547087
251	0x3d526237	0.051363196
252	0xbe54ea41	-0.20792486
253	0xbe0ff42a	-0.14057985
254	0xbdb662b5	-0.089055456
255	0xba71875b	-0.000921359

net.4.bias f4 [7]
0	0xbe42c969	-0.19022144
1	0xbe536bc6	-0.20646581
2	0xbe407000	-0.18792725
3	0xbe4216b1	-0.18953969
4	0xbe71ee29	-0.23626007
5	0xbe377851	-0.17916991
6	0xbe482203	-0.19544224
