qnet3_75.pt (torch, 102065 bytes, 6 tensors)

net.0.weight f4 [128, 57]
00000000: 9a25 453d e038 b3bd 59be 48be be17 463e
00000010: 4d49 e93d 41bf 0c3f 0262 09bd a79a 973d
00000020: f6a8 2cbe 339b 3fba 220e 6c3e 2117 293e
00000030: a761 e6bb aabc 49be 5253 963d 762b a7be
00000040: 70dc aa3d 51c7 5c3e de13 63bc 9d15 89be
00000050: 8316 54be e644 6abe a410 eb3d 658b c53d
00000060: 2c91 563e 3d68 433e e040 463e 7936 993e
00000070: 063f 2a3e 4ade e6be 9d23 ca3d 52f9 7ebe
00000080: 25fc 3a3d c89f 00bf 2274 4fbd c6c2 92be
00000090: 9627 f73d 9936 e43e fe49 b93d 7064 cbbe
000000a0: a81b cfbd 4d7b 66bd 7224 a03e b173 9c3d
000000b0: 234e c83c 7ff0 b2be 32f1 a33d 0fcd 2c3f
000000c0: 856b 313e 4c3f 5dbe e715 753c 415f 2f3f
000000d0: e5fe 8b3d edb7 af3c 3839 8ebe 7973 9e3e
000000e0: 6575 243b 8ec6 193e 75fe 5f3e b2c1 b13d
000000f0: ecb4 3e3d e292 80be c66f 99be d284 803d
00000100: 6627 2d3f ecfa 6ebe 92ea de3c ea8f 963e
00000110: 1216 b0be 1242 3fbe 6b47 293e 8812 9c3e
00000120: 9284 ef3d 4886 27bc ae32 333f 6e9b 583e
00000130: 6901 ae3e 2aac 8c3e fd18 c93e 967f d3be
00000140: 21b4 20bf 2327 0abf e810 1b3d 5c1f 47be
00000150: 4e39 b0bd cbf0 b6be b729 1b3f 2a24 e13e
00000160: a089 c73e 92e2 083d 66e3 92be 7d9c 1b3f
00000170: 4036 8dbe c6df 79be 3dc2 85be 184a 153f
00000180: 0522 2bbf b4ad 31bf a2ec d4be ffb1 f93e
00000190: f3de cabe 7596 813d 4001 883e b2c6 74be
000001a0: c1d4 dc3d 1ea1 773e b520 2ebf 051c 0fbf
000001b0: 5244 15be 8726 f23d a804 3d3e 7589 463d
000001c0: c054 e2be 8402 ad3d db49 683d d52e 3d3c
000001d0: 4923 90be a8d0 1c3d 3b53 053e d15b aebe
000001e0: c2c2 b3bd 41c0 17be 85fe 193f 6324 ebbe
000001f0: 9e65 0f3e 27be fa3e fdbe 883d 65bc c5be
00000200: 01e7 8d3e 374e 303f a681 1abd 36df 1a3e
00000210: 8252 9a3e d524 10bf 1011 b43e 0368 0dbc
00000220: 1199 8cbe 1bb7 8abd d7df 06bd 1807 7bbe
00000230: ee8b 52be 206c 623d 5f39 b23d 8cb3 743e
00000240: 37bf 143f a9a3 a5bd 7f00 54be b294 4f3e
00000250: 3bc7 bdbe a9c2 423e eb0e ddbe 5cd4 f7bd
00000260: a568 1d3e 71a3 d43d dc4b 0c3f d246 b83c
00000270: 5175 b83c 8009 a63e 4f17 29be affa 5fbe
00000280: 1299 423d 7e7c bd3e a769 f1be 56fb 72be
00000290: 7341 7c3e 17a5 a63b e40b 2c3d 0a1e 953d
000002a0: b8cc 92be 7df9 bcbd 7b97 a63e 18ee 9f3c
000002b0: 5e43 cb3d 8ab6 b83e bae6 01bb 737a 053e
000002c0: 4374 25be 0355 a23e fe3b 47be 442d e23e
000002d0: 949a 24be e61f eebd 5262 5dbe c70f dd3e
000002e0: f847 c53e a28d ccbc 6e49 17be aa59 1d3e
000002f0: c4ba 063e 078b 103e 9c13 80be babe 87be
00000300: 2462 00bd fe5f 7b3e d5f6 a4bc 68bd ddbe
00000310: a066 343e c9f4 7cbe a1bf e13e a22b dfbe
00000320: 0ec6 a93e 16b0 4e3e 03de 88be e8e0 cabe
00000330: fb34 15be fbad 073f 3b21 143f 677f 4abe
00000340: 2cc4 4a3d 14b1 39bf f4a9 06bf ae54 983e
00000350: 499d bc3e 6d40 ae3e f3e9 96bf 7c07 cdbe
00000360: 58d0 1abe 60af afbe ec85 90be f033 da3e
00000370: b355 a1be aa13 de3d 540a 213e db95 f23d
00000380: d745 2c3e a4b5 6fbc 78a5 4b3e b5f8 06bd
00000390: 562a 52bd a9bc 183e 5d09 12bd c6c7 9e3d
000003a0: 7247 973e d210 0a3e abf9 c53d ef08 703e
000003b0: f228 30be 37b1 8cbe ae98 c03d 9406 8cbe
000003c0: 70c3 e0be 2d4a 953e 8673 28bf e46c 8e3e
000003d0: fd8e 773e 45bd b2be 91bd 39bd fe28 dfbc
000003e0: ded1 3cbe 3c05 febe b668 90be 7d48 913e
000003f0: 230b 8abe 91d4 2a3e 4c4d c53e c3f8 d5bd
0.048131563 -0.087510824 -0.19603862 0.19344994 0.11390934 0.5497933 -0.033540733 0.074025445
-0.16861328 -0.0007309198 0.23052266 0.16512729 -0.007030684 -0.19700876 0.07340111 -0.32650346
0.08342826 0.21560408 -0.013859717 -0.26774302 -0.20711713 -0.22877845 0.11477783 0.09645728
0.20953816 0.19082732 0.19360685 0.29924372 0.16625604 -0.45091468 0.09870074 -0.24899796
0.04565062 -0.50243807 -0.050647862 -0.28664225 0.12068097 0.44572905 0.09047316 -0.39725065
-0.10112697 -0.056269933 0.31277806 0.07639254 0.024451321 -0.3494911 0.08004989 0.67500395
0.17326172 -0.21606177 0.014958835 0.6850472 0.06835727 0.021450007 -0.2777803 0.30947474
0.0025094387 0.15017149 0.21874411 0.086795226 0.04655926 -0.25112063 -0.2996809 0.062753335
0.6763824 -0.23337907 0.027211461 0.29406673 -0.34391838 -0.18677548 0.1653115 0.30482888
0.11695208 -0.010224886 0.69999206 0.21153042 0.3398545 0.274751 0.39276877 -0.41308278
-0.62774855 -0.5396597 0.03785792 -0.19445556 -0.0860468 -0.35730585 0.60610527 0.43972903
0.38972187 0.0334192 -0.28689116 0.6078566 -0.27580452 -0.24401769 -0.26124755 0.58316183
-0.66848785 -0.69405675 -0.41586787 0.48768613 -0.39623222 0.063275255 0.26563454 -0.23903921
0.10782767 0.24182555 -0.68018657 -0.5590213 -0.14576843 0.11823755 0.18458807 0.048470933
-0.44205284 0.084477454 0.05671106 0.01154681 -0.2815192 0.038284928 0.13020031 -0.34054425
-0.087773815 -0.14819433 0.6015399 -0.45926198 0.14003608 0.489732 0.06677053 -0.38620296
0.27715304 0.68869346 -0.0377213 0.1512421 0.30141073 -0.563062 0.35169268 -0.008630755
-0.2746053 -0.06773206 -0.032928314 -0.24514425 -0.20561191 0.055278897 0.08702349 0.23896617
0.5810427 -0.08087856 -0.20703314 0.20271567 -0.37066063 0.1901957 -0.43175444 -0.12101051
0.1537195 0.103827365 0.5480325 0.022494707 0.022516878 0.32429123 -0.16512798 -0.21872972
0.04750926 0.37009043 -0.4715092 -0.2372869 0.24634342 0.005085598 0.042003527 0.0728112
-0.28671813 -0.092272736 0.32537445 0.019522712 0.09924959 0.36076766 -0.0019821362 0.13034992
-0.16157632 0.31705484 -0.19456479 0.4417516 -0.16074592 -0.11627178 -0.21619537 0.431761
0.3853147 -0.02496988 -0.14774105 0.15366235 0.13157183 0.14115535 -0.2501496 -0.265127
-0.031343594 0.24548337 -0.02013723 -0.43308568 0.17617273 -0.24702753 0.44091514 -0.43587977
0.33158916 0.20184359 -0.26731881 -0.39624715 -0.14570992 0.5299985 0.57863206 -0.19775163
0.04950349 -0.72535825 -0.5260308 0.29752105 0.3683875 0.34033528 -1.1790146 -0.40044773
-0.1511854 -0.34313488 -0.28227174 0.4261775 -0.31510696 0.10843594 0.15726596 0.11844989
0.16823517 -0.014630709 0.1988734 -0.03295203 -0.051309906 0.14915718 -0.03565346 0.077529475
0.29546696 0.13482979 0.09666761 0.23440908 -0.1720312 -0.27478954 0.09404121 -0.2734877
-0.43899107 0.29158154 -0.65801275 0.27817452 0.2417564 -0.34910026 -0.0453468 -0.027241226
-0.18439433 -0.4961337 -0.28204888 0.28375617 -0.26961622 0.1668265 0.38535535 -0.10447838

net.0.bias f4 [128]
00000000: 75f0 77be d6c9 583e 28f1 e0bd d6b4 e0be
00000010: 1c98 efbe 1649 4bbe 20c3 bbbe bcf5 343e
00000020: 2a20 5fbd ccd8 72bd 3c9b 0d3e ba5e cdbd
00000030: 14b4 8e3d 99e0 263d 1070 1fbf 12d2 4b3d
00000040: 4ea5 a0be 97c7 883e 39fb 97be 6c3f 78bc
00000050: 42ed 033e 7c67 8dbd 07e7 9a3d b3de 02be
00000060: fdfb 27bd d1f1 debc 3687 173e 2f97 713a
00000070: 683a eb3d a13d 06bf ebc2 cf3d f7ba 193d
00000080: a1d3 80be 024b eabd 39c7 c2be 76e3 efbe
00000090: 3d6f df3e 5e0e 3b3e 5aea c5be 6de3 533e
000000a0: 5e56 b33e 014a 07bd 553e dbbd 8079 8abe
000000b0: f03a a2bc 3f99 25bb 9ec2 adbe 85df 153e
000000c0: c23a 063d 0b6f 7bbe 9b01 1c3d f1e0 d93d
000000d0: c28c 323e 6803 8bbe e9cb c8bc f655 dbbe
000000e0: 1c6f babd f8d6 913d e9df cbbd 1f1a 1dbe
000000f0: 7477 b8bc 454c fdbe 0832 b7be 8c21 153e
00000100: 40f4 36be cb48 3a3c 8069 703d ab0c 4d3e
00000110: cbbd 013d 2b5b 4fbe 0ba6 b4bd 624a 12be
00000120: 63f8 9d3e 3b56 243e e95d 16be 69b2 d53d
00000130: c6d4 303e 1c00 dabd e85b 67bc 4437 88be
00000140: e241 9c3d 73be 49bd 4231 cabe 2d14 1cbd
00000150: a40b 22bd b39c 5e3e c39c a6be 6a0c febe
00000160: cdf9 10bf 0d1e 3ebe 5f05 0d3e ddd4 5b3e
00000170: c46d 353e 8488 923e 31d3 643d 1ddf 85bd
00000180: 698b 103d 0060 5c3c 2de7 a6bd 3cb1 96be
00000190: 2e64 e53b f5f4 973e c5a6 7ebc a1b5 4c3e
000001a0: 9f2b 253e 4dba a0be 4df3 9cbe 53e0 12be
000001b0: bcff f2be 8126 9b3e b603 93be af97 79bd
000001c0: b3b7 003d 87cb eabe 4fbd 623e 924e 8bbd
000001d0: 3259 a1be e6f4 a0bd f9f7 493e 8fa9 d23d
000001e0: 9803 0b3e 49c6 d2bd affa d6bd 53d3 a43e
000001f0: 1832 33be a416 91be ddb4 8abe 094b 8bbe
-0.24212821 0.21170744 -0.10983497 -0.43887967 -0.46795738 -0.19852099 -0.36672306 0.17671865
-0.054474033 -0.059288785 0.13828748 -0.10027833 0.06967941 0.040741537 -0.6228037 0.049760886
-0.31376117 0.26714775 -0.29683855 -0.01515184 0.12883475 -0.06904504 0.07563596 -0.12780266
-0.0410118 -0.027214916 0.14797673 0.00092159485 0.114857495 -0.5243779 0.101445995 0.03753182
-0.2516146 -0.11440088 -0.3804262 -0.46853226 0.43639556 0.182672 -0.3865536 0.20692225
0.3502683 -0.03302956 -0.10705248 -0.27045822 -0.019803494 -0.0025268344 -0.33937544 0.14636047
0.03277088 -0.24554078 0.03808747 0.10638607 0.17436507 -0.27151036 -0.024511294 -0.4283902
-0.09103224 0.0712108 -0.09954817 -0.15341996 -0.022517897 -0.49472252 -0.35780358 0.14563578
-0.17866611 0.011369894 0.058694363 0.20024364 0.03167514 -0.20249622 -0.08820733 -0.14286187
0.30853567 0.1604852 -0.14684261 0.1043442 0.17268667 -0.10644552 -0.014121033 -0.26604664
0.07629754 -0.049253892 -0.39490706 -0.03810518 -0.039561883 0.21739464 -0.32541475 -0.49618846
-0.56631166 -0.18566151 0.1377158 0.2146792 0.17717654 0.28619778 0.05586547 -0.06536696
0.035289202 0.013450623 -0.08149562 -0.29432094 0.0070004677 0.29679075 -0.015542691 0.19991161
0.16129921 -0.31392136 -0.30654374 -0.14343385 -0.47460735 0.30302814 -0.2871377 -0.060935672
0.03142519 -0.45858404 0.22142528 -0.068020955 -0.31513363 -0.07859211 0.197235 0.10286247
0.1357559 -0.10291726 -0.10497033 0.32192478 -0.17499578 -0.28337586 -0.27091113 -0.27205685

net.2.weight f4 [128, 128]
00000000: 8394 98bd 6447 a83e c99f 6fbf 9f8f 173e
00000010: 5823 a7be 643b e5bc 3fa8 763e 29fe 1e3e
00000020: bad4 c1bd aa22 6f3d cc5e 0dbf 4e3e a73d
00000030: 4d4d e7be 0367 91be 844c 3cbf cef7 9fbf
00000040: 05f7 43bf b11b aabc a58b 133e aabb c9be
00000050: d592 68be df98 3d3c 105b 26bc 20fe 90be
00000060: a6ef 29bd d253 8aba 6171 eabe f454 e53b
00000070: f737 553e 8d33 19be b960 a1be faf0 1dbe
00000080: 1686 0abd 6552 8c3c ac3a ea3d ca0b 56be
00000090: 356b ad3e 4da5 03bf 7d3c c53c 2547 05be
000000a0: 726b afbe f94b 833e a3ed 0ebd dcc1 e6be
000000b0: 994b b0bc 47b6 09bd 4469 6bbe 678d 17be
000000c0: 891f 1b3d ad02 b2be 9647 85bd 1ebe 8abc
000000d0: 7fc3 4bbe 9e2b dd3d c883 10bd 8875 69be
000000e0: 0d43 5bbe 3749 9cbe 9ace 023c 8561 8c3d
000000f0: 476c 873d 6879 0abe 6b1d a5be d6d8 b03e
00000100: 44ea 5abe 239a ae3e 850f 3dbe 5419 38bf
00000110: aa09 91bd d17a 4abe d2b7 3ebe e26b 05bd
00000120: 84d5 a0be a087 903e 03b7 d8be 77be dc3e
00000130: 9a8a 5cbf b9b0 ad3d be93 17bf bfcc 64bf
00000140: 9f2a abbe 3855 29be 27e0 7dbf 4e83 b8bd
00000150: f1bd 68bd 9db4 a23d 65d6 3bbf 303e 59be
00000160: 7c8e af3d 13f2 23bf f5c5 c63d 53db ebbe
00000170: 3077 27bc 1319 22be 941f fc3c 451b 113d
00000180: 9dd8 e0bc cc02 d23e b056 4ebd aec8 04bf
00000190: 79dd 403e bc0b 8c3e 8c91 3b3e 4fb6 e43c
000001a0: fbb9 acbe 0c28 3bbe 8110 eebe fc91 4bbd
000001b0: 965f 30be 40a6 ccbe 5c8f 503d a957 523d
000001c0: d539 00c0 63da d8bd 2331 703e 11cf 2ebf
000001d0: 3322 38bf d32b f1bc 96cd bdbd a16b 8fbd
000001e0: 6abc 1c3e 0ddc 16ba 41c2 1fbf e43a a83d
000001f0: 01ad 923d c174 82bd 0ab1 83be 3959 433e
00000200: cd7d 863e 7a6e d2bd 991a 3b3e e106 e1bd
00000210: 674c 46be a2a0 67b9 4fee a83e def4 04be
00000220: ef41 f93d 5354 7a3d c44e 7fbe 67b2 bb3c
00000230: 4faa db3d f97a 773e f490 a53d 3746 41be
00000240: 0032 6c3d 4772 c0be 4fcd e6bd 03dc f53d
00000250: a3a6 41bd 2dba 87bd 79fc 333d d23e 40bf
00000260: 783d 083b 0eca 1ebf bb30 c0bd f278 1e3d
00000270: 2f1c b9bd 3dd7 02be beb9 cd3e d554 7ebe
00000280: a5f1 7d3e a928 233d 53bb 3fbe fdcd a4be
00000290: 8af9 08bf 1ab9 2dbe 33eb f4be 6cca cebe
000002a0: 9720 1fba e7a2 da3d 6606 12bf 5de6 693d
000002b0: 298e ea3c a06c ad3d 22ff f5be 22bd 76be
000002c0: 3bd2 0cbf f56b b0be d548 d8bc 3fa1 4c3e
000002d0: 8c71 00bf 7700 ddbd dbb6 523d 5f41 98bd
000002e0: e69f 2c3e afd0 a4bd 1c78 aebd 1d6d 8e3c
000002f0: 28e5 96bd 9cae 4cbe 4cc4 28be 7e93 47bd
00000300: 994c 1bbe 659a 00be 68ea 05be 06a0 423c
00000310: e34e c2be 3194 95bd 6cb0 8f3e 4672 c53e
00000320: 49ec 81be 99ba 48bf 4bb1 15be 4732 b93d
00000330: 86b0 78bf 88c2 573d 0acc 88be 9a28 9fbe
00000340: 549b 063f 5694 b5bd 7c0b 803d 9dc5 dd3b
00000350: a8c6 ae3d 214c eebc 23ef edbe 906c 3b3e
00000360: cc04 84be 94d9 373e 0e35 a63d 9be7 13be
00000370: 101b 3abe 7935 193f 83a1 903b bbb1 1dbd
00000380: d35f 153d e2b4 803c 338a 9a3c d162 84be
00000390: 4c2d 9d3c affa db3d 56f4 87be 7b8f e53c
000003a0: c8be 363d de76 7ebe 3b92 fd3d 7c0b abbc
000003b0: c8ef c63d 8be2 41be 7956 3ebc 3781 853d
000003c0: 06cd 23bf ebaa 22bc 87b4 b73d 0d1c 32be
000003d0: be93 cc3c f328 943e d8dd a83d c037 b03d
000003e0: 2c6b 31bf 0446 a2bc 061e 1abc dc14 0f3e
000003f0: c242 4b3e d1bf 43bf 97cc 543c c1da a7bd
-0.07450201 0.32866967 -0.9360319 0.14800881 -0.32644153 -0.027982421 0.24087618 0.15526642
-0.094644025 0.058382668 -0.55222774 0.081661806 -0.45176163 -0.28398904 -0.73554254 -1.2497499
-0.76548797 -0.020765157 0.14408739 -0.3940099 -0.22712262 0.011572092 -0.010153547 -0.28318882
-0.041488312 -0.0010553545 -0.45789626 0.0069986526 0.2082213 -0.14961071 -0.31519106 -0.15423957
-0.03381928 0.017129133 0.11436972 -0.20902935 0.33870855 -0.51424104 0.024076695 -0.1301542
-0.34261662 0.256439 -0.034894597 -0.45069778 -0.021520423 -0.0336211 -0.22989374 -0.14800034
0.03787187 -0.34767666 -0.065077946 -0.016936358 -0.19898795 0.10799335 -0.035281926 -0.22798741
-0.21412297 -0.30524608 0.007983828 0.06854538 0.06612449 -0.13522875 -0.32249007 0.34540433
-0.21378428 0.34101972 -0.18462951 -0.7191365 -0.070819214 -0.19773413 -0.1862481 -0.03257359
-0.314129 0.28228474 -0.42327127 0.43114063 -0.8614899 0.08480973 -0.5920981 -0.8937492
-0.33430955 -0.16536415 -0.99170154 -0.090094194 -0.056821767 0.079446055 -0.73374015 -0.21215129
0.085720986 -0.6404125 0.09705726 -0.4606577 -0.010221288 -0.15829878 0.030776776 0.035426397
-0.02744704 0.4101776 -0.05037564 -0.5186871 0.18834485 0.27352703 0.1831724 0.027918963
-0.33735642 -0.18276995 -0.46496966 -0.04969977 -0.17223963 -0.3997059 0.05091797 0.05135313
-2.0035298 -0.10588529 0.23456244 -0.6828471 -0.71927184 -0.029439842 -0.09267728 -0.070029505
0.1530625 -0.0005754836 -0.6240578 0.082143575 0.07161904 -0.06369925 -0.25721008 0.19077004
0.26267853 -0.10274978 0.18271865 -0.1098764 -0.19365083 -0.00022089717 0.32994315 -0.12984034
0.12170779 0.061115574 -0.2493239 0.022912217 0.10725843 0.24168004 0.08084288 -0.18874441
0.05766487 -0.37587187 -0.11269628 0.120048545 -0.047278058 -0.06627307 0.04394195 -0.75095856
0.0020788591 -0.6202706 -0.093842946 0.03868956 -0.09038579 -0.1277742 0.40180773 -0.24837048
0.24799211 0.0398337 -0.18723802 -0.32188407 -0.53505766 -0.16965142 -0.47835693 -0.4038881
-0.0006070225 0.106756024 -0.57041013 0.057104457 0.02863224 0.08467984 -0.48046213 -0.24095586
-0.55008286 -0.34457365 -0.026401917 0.19983386 -0.5017326 -0.10791104 0.051443916 -0.074343435
0.16857871 -0.08047616 -0.08519003 0.017386014 -0.07367927 -0.19988483 -0.16481131 -0.048724644
-0.15165938 -0.12558897 -0.130777 0.011878973 -0.3795081 -0.07303656 0.28064287 0.38563746
-0.25375584 -0.78409725 -0.14618413 0.09042793 -0.97144353 0.052675754 -0.2671817 -0.31085664
0.5258076 -0.088661835 0.062521905 0.006767942 0.085339844 -0.029089035 -0.4647151 0.18303132
-0.2578491 0.17954093 0.08115588 -0.14443819 -0.18174386 0.5984722 0.004413785 -0.038499575
0.03646834 0.015711252 0.018864727 -0.2585664 0.019186638 0.107411735 -0.265536 0.028022518
0.044615537 -0.24850032 0.12381407 -0.0208795 0.097137034 -0.18934076 -0.011617296 0.065187864
-0.63984716 -0.009928445 0.0896998 -0.17393513 0.024972793 0.28937492 0.08245438 0.086043835
-0.69304156 -0.019808777 -0.009406572 0.13972801 0.19849685 -0.76464564 0.012988231 -0.08196021

net.2.bias f4 [128]
00000000: e898 843d 9509 873d 2179 853e 421f babe
00000010: 7806 233d 3668 04bd 9917 d13d 97fe 0a3e
00000020: 045e b6bd 2d35 30bd 7bc0 1d3e 758e f83d
00000030: 8907 d3bd e526 a83b 23a3 eabd e7c6 913d
00000040: b36a 45be 04bb 06be 5fe6 923e 8817 33bd
00000050: 6567 fdbd 856a 9cbc 8654 863e c9fd e13c
00000060: d298 6dbe e9c3 1e3e f5fb a4bd 79eb 4d3e
00000070: 8e1a afbc bab4 18bd ab20 b7bd 1400 233e
00000080: 03ca 02be 7e2e 6b3d 0ab6 7d3e a7be d8bd
00000090: b577 973d 8cee a63e bfe2 903e 4b63 b6bd
000000a0: 9f0d 53be 2636 2ebe aa24 06be d327 3c3e
000000b0: 409f 86bd 893c 0c3e 7907 f4bd 9e17 bfbe
000000c0: f20e 4c3d 28b6 65bc bb49 2cbe e21f 03be
000000d0: 4878 32be 8e76 353e f30b 1e3d dce4 18be
000000e0: 019c 75bd 1bc0 9d3e 1ba0 da3d a10a cabd
000000f0: eea4 62bc 7f53 13be 0cb0 f33d b62f 323e
00000100: 2d4f fbbc 2b61 783e 4d80 19be 1036 02be
00000110: 5d74 323e c2e2 e8bd 797f 79be 8a01 db3c
00000120: e632 c7bd df6b d83b 563f f23d f293 443e
00000130: cf0a aa3e b34a e9bd 73b1 19be 3872 853b
00000140: 255a 173e 7cd9 d5bd f14f 843d 2d10 9eba
00000150: e5be 6a3e 37d7 9e3c 0023 8fbd 7c44 75bd
00000160: f35d 8cbd 4115 f03d 84c8 8bbd 8f9e f9bd
00000170: b1d8 b93e 157a 09be a72d d9bd d035 20be
00000180: 289d a4bd c44d b83e 30c0 7ebd a2ac 22be
00000190: 0f3e 893c b883 363e 246f 7f3d 304f b1be
000001a0: 76d0 873e 3ec9 04be 3703 b43d a745 333d
000001b0: 6571 9cbd af44 a1bd 6445 26be 1d2b 263e
000001c0: 27d8 ffbd b289 573e 0909 343e 1b23 b5bb
000001d0: 9f82 ebbd db46 6abd b9f9 85bd 8a97 01be
000001e0: 1b3d 163d d307 5a3d 8123 813e f48e 4a3e
000001f0: 21a2 943e b922 b73d e0ab b13e 308e 06be
0.06474477 0.065936245 0.26068977 -0.36351973 0.03980109 -0.032325946 0.10209579 0.13573681
-0.08904651 -0.043019462 0.15405457 0.121365465 -0.103041716 0.0051315897 -0.11456897 0.07118016
-0.19278984 -0.13157278 0.28691384 -0.043723613 -0.123732366 -0.019093761 0.2623636 0.027586835
-0.23202828 0.15504421 -0.080558695 0.20109357 -0.021374967 -0.03728173 -0.08941778 0.15917999
-0.12772374 0.057417385 0.24776474 -0.10583239 0.07395879 0.32603872 0.28297994 -0.089056574
-0.20610665 -0.17012843 -0.13099924 0.18374567 -0.06573343 0.13694967 -0.11915488 -0.37322706
0.04981894 -0.01402048 -0.16825001 -0.12805131 -0.17428696 0.17721006 0.038585614 -0.14931053
-0.05996323 0.30810627 0.10675069 -0.098653086 -0.013833268 -0.1438732 0.11898813 0.17401013
-0.030677402 0.24255817 -0.14990349 -0.12715936 0.17427202 -0.113713756 -0.24365033 0.026734132
-0.09726505 0.006604656 0.118284866 0.19197062 0.3321137 -0.11391201 -0.15009098 0.004072454
0.14780481 -0.104418725 0.0646056 -0.0012059264 0.22924383 0.019389732 -0.069890976 -0.059879765
-0.06853857 0.11722804 -0.06825355 -0.12188446 0.36298135 -0.13425477 -0.106044106 -0.15645528
-0.08037788 0.3599683 -0.062195003 -0.15886167 0.016753225 0.17823684 0.06236185 -0.34630728
0.2652623 -0.12967393 0.08789676 0.043767598 -0.07638816 -0.078744285 -0.16237408 0.16227384
-0.124924 0.2104862 0.17581572 -0.0055278665 -0.11499523 -0.05719648 -0.065417714 -0.12655464
0.03667937 0.053230118 0.252224 0.19781095 0.29029945 0.0894217 0.34701443 -0.13140178

net.4.weight f4 [7, 128]
00000000: 2dcb 8bbe 7779 013c b71d ae3e 8185 793e
00000010: d2e8 0e3f 132a aa3e 86f5 a13d 635f 11be
00000020: 5a95 043c 5f3a 5abe 42e6 de3e e7ea aebd
00000030: 23a6 b7be 0174 05be 495b ad3d c0d3 05bf
00000040: 4304 a3be e85c 3bbb 73f8 173e 859f 3ebd
00000050: 5275 a73d cd79 2d3e 4bcd c63e 6f72 02be
00000060: 0dfe 9e3e 2e2c b93e 6100 21be a5ac cbbd
00000070: ae2c adbe 7a9a e43e a4ed 14be c284 bcbe
00000080: 5513 863e 0cdf f4bd 3a43 f13e 1a4b e43c
00000090: 0179 29bf 1d01 fa3e 2e37 143f 018c 203e
000000a0: 9725 26be 5004 133e 7bf5 8c3d 8401 6fbe
000000b0: d561 903e 4a23 583f c3b3 63ba 4330 b0bd
000000c0: e683 653e a6f6 fbbe 3546 993e 56b5 bcbd
000000d0: feb6 d03d 72d7 0f3f bd91 65be 84a9 96be
000000e0: 1305 6fbe e009 b83e ac62 273d 4431 c63c
000000f0: f3b4 04be 8ff6 afbe 8da4 6cbe 5f23 523e
00000100: 6cf9 a83e 25d4 653e 23be b33e 01a1 cfbd
00000110: 3ffa 98be 8aca f439 877d 143e 6456 81be
00000120: 9f28 403c fe0c c13e 3016 303f 7ca7 74bf
00000130: ae57 943e 2de2 6ebc 2985 363d 9ad9 20be
00000140: c409 bb3e 2725 bbbe 2cdd 5ebe 5f1c 24be
00000150: cd45 e73d ca04 d13e fdf3 a03d 156a f5be
00000160: 6fcf 9e3d 35b2 863e 6526 55bd da9d 8b3d
00000170: 047f c43d 2f3e 85be dd17 253e cf83 3f3e
00000180: 77cc 103e 17ff 313f 20ae a7bd 9a1e 293e
00000190: 88bc b7be 38b3 10be c70d 85be 5a64 333e
000001a0: 8f38 3e3f 1922 d7be 6140 86be 9801 9b3d
000001b0: dc36 36bd acad 8fbe 1ba1 81be fb85 943d
000001c0: 37b4 84be d173 ae3e 4c35 f8bc 0f26 8fbe
000001d0: bff5 1f3d 2a88 4cbe 490b 8f3d 1b93 10bd
000001e0: d2a5 443f c3de a6be f899 0c3f 8ca1 fabd
000001f0: e310 45be 0ab3 8f38 0a5e 0a3e a398 aebe
00000200: 6e3d e43e 42f6 18be c1c3 a1be 8799 2a3e
00000210: 3f4b bd3e ba98 b93e b2a8 b5bd 1091 b5be
00000220: 60f5 c53e 5c84 99bd 6276 e1bc 2d87 803b
00000230: a0f0 073d a8e2 5f3e bbd9 09bd 034c 54be
00000240: 7a53 083e e31e d3bc c1a7 213e d4d0 0b3e
00000250: 3663 833b 3b6f e0bd dedb 95be da47 a4bd
00000260: 4956 8b3e b491 3f3e a4ff 823e f75b efbe
00000270: 947a bbbe 169c ebbe a696 14be 9df5 1e3f
00000280: 7851 3b3d b50e 51bd 7f04 253f 44b1 01bd
00000290: ae9b 6f3e fb74 9ebe a56d 7a3f 2255 263e
000002a0: 8b68 493e d3e2 35be cd84 053d f7b5 c53d
000002b0: 6acf 8d3e c8d1 19be 90da 71bb 5b45 423e
000002c0: f10c f7bd ed22 f6be d7de c73c b427 e3bc
000002d0: 739f 953e 3fe1 f53e 8dc7 11be f9b3 58be
000002e0: efb9 07be 1020 2e3f 98e9 2cbd 5afa d23c
000002f0: e6c5 df3e 34db 423e 0d9f 7abe 08ff 1cbe
00000300: b7c8 d53e 949e 663e c4da 613e 377c c2be
00000310: 7578 ea3d 3e84 013d 3846 f3bd 095d 02be
00000320: 842e e73c 90ca efbe 8a5e 963e 6bf9 ed3d
00000330: dc45 5c3c 7b20 cbbb b374 5abd 7bb8 a6bc
00000340: 32da ffbc 6e09 92be 5421 12be e665 503e
00000350: d39a da3e a78d d23d e671 a0bd 3eb5 223f
00000360: d818 923d 5cf1 2dbe c1a9 b5bd 7f9c ee3c
00000370: 88df ba3e 8f92 dabd e9ac acbe d697 b03d
00000380: e562 fabd 11b6 403e 5d79 ad3c 46d1 57be
00000390: e293 96bd a2fc 80be 0c14 bdbd 0a38 f13d
000003a0: dcbd c03c 6635 1f3e 0ad7 39be c4f4 d7bd
000003b0: 6a39 cbbc 8bf6 83be 0643 02be 35c9 eebe
000003c0: 7840 953e 514f b7be 0c41 363f bfea a7bd
000003d0: aac9 613e c617 093e 6034 923d 3bc2 6c3c
000003e0: e571 073e e690 9dbc 8565 6e3d 8716 9abd
000003f0: 9c7d 54be f08a 9f3c 2d92 3b3f 8a70 50be
-0.27303448 0.007902495 0.34007046 0.24367334 0.55824006 0.33235225 0.07908158 -0.14196543
0.008092249 -0.2131133 0.43535048 -0.08540898 -0.3586894 -0.13032533 0.08464677 -0.5227623
-0.3183919 -0.0028589312 0.1484087 -0.04653885 0.08176674 0.16940995 0.388285 -0.12738965
0.310532 0.3616652 -0.15722801 -0.09945039 -0.3382315 0.44649106 -0.14543778 -0.36820036
0.26186624 -0.11956605 0.47121602 0.027867842 -0.6620026 0.48828974 0.578967 0.15678407
-0.16225277 0.14357114 0.06882759 -0.23340422 0.2819964 0.84428847 -0.00086861494 -0.08602955
0.22413597 -0.49211615 0.29936376 -0.092142746 0.10191153 0.5618812 -0.22418876 -0.29426205
-0.2334178 0.35945034 0.040865585 0.024193414 -0.12959652 -0.34367797 -0.23109646 0.20521306
0.33002794 0.22444208 0.35106 -0.10138131 -0.29878423 0.0004669021 0.1450101 -0.25261223
0.011728435 0.37705225 0.68783855 -0.9556806 0.28973144 -0.014580292 0.044560585 -0.15708008
0.36530888 -0.36551782 -0.21764058 -0.16026448 0.1129261 0.40823966 0.07859037 -0.47932497
0.077544086 0.26307836 -0.05203857 0.06817217 0.09594539 -0.26024005 0.16122384 0.18702625
0.14140497 0.6952986 -0.081875086 0.1651558 -0.35886025 -0.14130867 -0.25987074 0.1751875
0.7430505 -0.42018202 -0.26220992 0.07568663 -0.04448591 -0.2806219 -0.25318226 0.07252117
-0.25918743 0.34072736 -0.030298851 -0.27958724 0.03905272 -0.19973817 0.06984574 -0.03529654
0.7681552 -0.3259183 0.5492244 -0.12237844 -0.19244723 6.85212e-05 0.13512436 -0.34100828
0.44578117 -0.1493769 -0.3159466 0.16660129 0.3697147 0.36249334 -0.08870067 -0.35462236
0.3866377 -0.07495949 -0.02752227 0.003922364 0.033188462 0.21863806 -0.03365491 -0.20732121
0.13313094 -0.025771564 0.1578665 0.1365388 0.0040096296 -0.109587155 -0.29269308 -0.08021517
0.27214268 0.18707925 0.25585663 -0.4674985 -0.36616957 -0.46017522 -0.14510593 0.62093526
0.04573199 -0.051039416 0.64459985 -0.031663194 0.23399231 -0.30948624 0.97823554 0.16243413
0.19668786 -0.17762308 0.03259735 0.09653848 0.27697307 -0.15021431 -0.0036903955 0.1897177
-0.12063015 -0.4807352 0.02439825 -0.027728893 0.29223213 0.48023412 -0.14236279 -0.21162404
-0.13254522 0.68017673 -0.04221496 0.025754143 0.43705672 0.19028932 -0.24474736 -0.15331662
0.41754696 0.2252143 0.22056109 -0.37985393 0.114487566 0.031620257 -0.118786275 -0.12730803
0.028220423 -0.4683423 0.29369003 0.11619838 0.01344439 -0.0061989403 -0.05333395 -0.020351639
-0.031231973 -0.2852282 -0.14270526 0.20351371 0.42696247 0.10280924 -0.078342244 0.63557804
0.07133645 -0.16986603 -0.088702686 0.029127358 0.36498666 -0.10672485 -0.3372567 0.086227104
-0.12225894 0.18819453 0.021176035 -0.21075925 -0.07352425 -0.25192744 -0.09232339 0.11778267
0.023528032 0.15547714 -0.18148437 -0.10544732 -0.02480765 -0.25774035 -0.1272088 -0.46637884
0.29150748 -0.358027 0.71193004 -0.08199071 0.22049585 0.13387975 0.07138896 0.014450605
0.13227041 -0.019234132 0.058202285 -0.07523828 -0.20751041 0.01947543 0.7326992 -0.2035543

net.4.bias f4 [7]
00000000: adee 9ebd e386 3fbe 621b 08be 02aa 34be
00000010: c649 09be 1287 3cbe 39f1 15be
-0.077603675 -0.18703799 -0.13291696 -0.17642978 -0.13407049 -0.184109 -0.146428
