qnet_4.83.pt (torch, 102065 bytes, 6 tensors)

net.0.weight f4 [128, 57]
0	0x3e454a12	0.19266537
1	0xbdffdaea	-0.124929264
2	0x3e57495c	0.21024078
3	0x3e8aca89	0.27107647
4	0x3f183303	0.5945284
5	0xbc442b5c	-0.011973228
6	0x3a6e39ac	0.0009087573
7	0x3df21139	0.11819691
8	0xbee4ad46	-0.44663447
9	0xbeead161	-0.45862868
10	0x3e5ab49b	0.21357958
11	0xbe5ac441	-0.21363927
12	0x3cd56c0f	0.026052503
13	0x3f08f419	0.53497463
14	0xbf28ea95	-0.65982944
15	0xbecad732	-0.39617306
16	0x3f368e07	0.71310467
17	0x3d680c42	0.056652315
18	0xbdd22e7f	-0.10262775
19	0x3e55a0c4	0.20862108
20	0xbe7d2d68	-0.24724352
21	0x3df0b925	0.117540635
22	0xbf37d77a	-0.71813166
23	0x3d8da9a6	0.069171235
24	0xbce92354	-0.028459229
25	0x3e0d3c42	0.13792518
26	0x3e1c928c	0.15290278
27	0x3e67048e	0.22560331
28	0x3e9b80b0	0.30371618
29	0xbdb5312e	-0.08847271
30	0xbe92eb4b	-0.2869514
31	0x3ef2c45a	0.4741543
32	0xbefcabb3	-0.49349746
33	0x3da399ac	0.07988295
34	0xbd36382b	-0.04448716
35	0xbe8e35b2	-0.2777534
36	0x3d343360	0.043994308
37	0xbf45fb4e	-0.77336586
38	0x3e9f6398	0.31130672
39	0x3ca4375c	0.020045929
40	0x3f18323b	0.59451646
41	0x3f14c112	0.581071
42	0x3eb9f802	0.36322027
43	0x3e2d8884	0.16946608
44	0xbebdcb50	-0.37069178
45	0x3d677650	0.056509316
46	0x3cf5285c	0.029926471
47	0x3de37d0e	0.11107837
48	0x3e213db7	0.15746199
49	0x3c229961	0.009924264
50	0x3e2a8215	0.16651185
51	0xbec7988d	-0.38983575
52	0x3e4b03ba	0.1982564
53	0xbe456950	-0.19278455
54	0x3e0b1f7d	0.1358623
55	0xbe23d37f	-0.15998648
56	0xbecbed41	-0.39829448
57	0xbc5808f3	-0.013185727
58	0xbe849b8a	-0.25899917
59	0x3d87077d	0.06593225
60	0xbc4b7437	-0.0124178445
61	0xbe07bbde	-0.1325526
62	0xbf17cf91	-0.59301096
63	0x3e51c708	0.2048608
64	0x3e6d8fdb	0.23199408
65	0xbe88ca2b	-0.26716742
66	0xbd9857ad	-0.07438598
67	0xbb23c39f	-0.0024988425
68	0xbe809455	-0.25113168
69	0x3d405399	0.046954725
70	0x3d6fc19d	0.058534253
71	0x3e5b90eb	0.21442
72	0x3f2baa54	0.67056775
73	0xbdd560a8	-0.10418826
74	0x3ee6d3f0	0.4508357
75	0x3dcf9614	0.10136047
76	0xbdf1241c	-0.117744654
77	0xbe684012	-0.22680691
78	0x3f238162	0.638693
79	0xbeb3e3d9	-0.3513477
80	0xbf03153f	-0.51204294
81	0x3f013928	0.5047784
82	0xbdde6be4	-0.10860422
83	0xbe678057	-0.22607552
84	0x3d880562	0.06641652
85	0xbd9a0975	-0.07521335
86	0x3f0fa628	0.5611291
87	0xbd080a54	-0.033212975
88	0xbe81439a	-0.25246888
89	0x3d45e9a3	0.048318516
90	0x3ec7fc4b	0.39059672
91	0x3db66601	0.089061745
92	0xbd832e1c	-0.06405279
93	0x3e8f8384	0.28030026
94	0xbea87db1	-0.32908395
95	0x3f1b88f6	0.6075586
96	0x3f0d7e39	0.55270725
97	0xbeb01277	-0.34389088
98	0xbf490409	-0.7852178
99	0x3ec25e44	0.37962544
100	0xbc0301cb	-0.007996033
101	0xbf50941d	-0.81476
102	0x3e2273ed	0.15864535
103	0xbef9115c	-0.48646057
104	0xbf2d5121	-0.6770192
105	0x3f1544ce	0.5830811
106	0x3ef234ff	0.47306058
107	0x3e56f819	0.20993079
108	0x3e272df4	0.16326123
109	0xbee2efce	-0.4432358
110	0x3eda55a0	0.42643452
111	0x3c1baf8b	0.009502302
112	0x3e0c2189	0.13684668
113	0xbd5056ad	-0.05086391
114	0x3cfcdd30	0.03086719
115	0x3d089280	0.03334284
116	0x3e86efd5	0.26354852
117	0x3f970b17	1.1800259
118	0xbf0091ef	-0.50222677
119	0xbe9f2719	-0.31084517
120	0xbe158412	-0.14601162
121	0xbe8f8fff	-0.28039548
122	0xbe068701	-0.13137437
123	0x3df8143b	0.12113234
124	0xbea73c7c	-0.32663333
125	0x3f5d0ffd	0.8635252
126	0xbec78700	-0.38970184
127	0x3d001fcf	0.031280335
128	0x3e518550	0.20461011
129	0x3ebe7582	0.37199026
130	0x3ef65f51	0.48119596
131	0xbe9ca57f	-0.30595013
132	0xbd67fec2	-0.05663944
133	0x3e3c2dd3	0.18376856
134	0x3d60cade	0.05488097
135	0x3f74d7b1	0.9564162
136	0xbeb91709	-0.36150387
137	0xbdbf4e4d	-0.093411066
138	0x3dda1900	0.106492996
139	0x3eddc529	0.43314484
140	0xbe113a88	-0.14182484
141	0x3d1bf649	0.038076673
142	0xbd46bc1d	-0.048519243
143	0x3e04b67a	0.12960234
144	0xbeac52d1	-0.33656934
145	0x3e4b0d0b	0.19829194
146	0xbec2c812	-0.38043267
147	0xbee36c41	-0.4441853
148	0x3ec3ddfe	0.38255304
149	0x3ea4ad5b	0.3216351
150	0xbe6cd031	-0.23126294
151	0xbf344430	-0.70416546
152	0x3e725c69	0.23668064
153	0xbe246aaf	-0.16056322
154	0xbe0acb34	-0.13554078
155	0x3e397e38	0.18114555
156	0x3eca7dbe	0.3954906
157	0xbdd99a53	-0.10625138
158	0x3f6d874b	0.92784566
159	0xbf8475b8	-1.0348425
160	0x3f80e03d	1.0068432
161	0x3eb92578	0.361614
162	0x3d52131d	0.05128776
163	0xbe000079	-0.1250018
164	0x3cf774d4	0.030207075
165	0xbf0806d8	-0.5313544
166	0x3edd9ebd	0.4328517
167	0xbf293d0c	-0.66108775
168	0x3d7c050f	0.06152826
169	0xbe18a4dc	-0.14906639
170	0xbd9d6a8f	-0.0768634
171	0xbe35bdd5	-0.17748196
172	0xbdf6f687	-0.1205874
173	0xbd6df47d	-0.05809449
174	0x3dc41450	0.09574187
175	0xbc9c3349	-0.019067423
176	0xbe22aa49	-0.15885271
177	0x3e061425	0.13093622
178	0xbe801d4c	-0.25022352
179	0xbed91d83	-0.42405328
180	0xbdcf199c	-0.101123065
181	0x3e3212bf	0.17389964
182	0xbe72d6a4	-0.23714691
183	0x3dd0e42c	0.1019977
184	0xbf33026c	-0.6992557
185	0x3e9057aa	0.28191882
186	0x3d06fed2	0.03295786
187	0x3f1b528f	0.6067285
188	0xbdc407a3	-0.09571769
189	0x39951ee7	0.0002844252
190	0xbe6c37ac	-0.23068112
191	0xbdf5b628	-0.11997634
192	0x3ed62afd	0.41829672
193	0xbe83f719	-0.25774458
194	0x3e00eb4e	0.12589762
195	0x3f111816	0.5667738
196	0x3e4b8100	0.19873428
197	0x3e5150a6	0.20440921
198	0x3d81ac76	0.063317224
199	0xbef3200e	-0.47485393
200	0x3ef6e95e	0.4822492
201	0xbe561738	-0.20907295
202	0x3e955048	0.29162812
203	0xbe2249db	-0.15848486
204	0x3bacd248	0.005274091
205	0x3de18835	0.110123076
206	0xbeaf7d45	-0.3427526
207	0xbe27644e	-0.16346857
208	0xbca58998	-0.020207211
209	0xbf108615	-0.5645459
210	0xbcd60957	-0.0261275
211	0xbd9c8454	-0.07642427
212	0x3d7a9635	0.061178405
213	0xbe9fe04b	-0.3122581
214	0xbdba1f0d	-0.09087954
215	0xbe89640c	-0.26834142
216	0x3eaec6d4	0.3413607
217	0xbeb3aac0	-0.3509121
218	0xbd34702e	-0.044052295
219	0xbe935037	-0.28772137
220	0xbdb4dcd8	-0.08831185
221	0x3d01cd5d	0.03168999
222	0xbef9736d	-0.48720875
223	0xbbf6a89e	-0.007527425
224	0xbdd70ad4	-0.10500112
225	0x3e51cf92	0.20489338
226	0x3e0bb5a5	0.1364351
227	0xbd73ceb3	-0.059523296
228	0xbd136bde	-0.035991542
229	0x3da066b3	0.07832088
230	0xbee21c13	-0.44162044
231	0x3e5af742	0.21383384
232	0x3e0edda9	0.13951744
233	0xbb96917e	-0.0045949807
234	0xbe7107b7	-0.23538099
235	0x3cea83b0	0.028627247
236	0x3d9a4281	0.07532216
237	0xbe1be9f7	-0.1522597
238	0x3efc3bd4	0.49264395
239	0x3cc45999	0.023968505
240	0xbc2272ee	-0.009915097
241	0xbf19c882	-0.60071576
242	0x3ee607aa	0.44927722
243	0xbf1bea6f	-0.6090459
244	0xbf1bbab5	-0.6083177
245	0xbe41ac85	-0.18913467
246	0x3c7678a0	0.015043408
247	0xbeaae454	-0.33377326
248	0xbedd2939	-0.43195513
249	0x3cab2a04	0.020894058
250	0xbe484ea2	-0.19561246
251	0x3e815fb9	0.25268343
252	0x3dd99931	0.10624922
253	0x3db60af8	0.08888811
254	0xbc5473ca	-0.012967059
255	0xbeb2c1a9	-0.34913376

net.0.bias f4 [128]
0	0xbe569ef7	-0.20959078
1	0xbebae60a	-0.3650363
2	0x3d429b50	0.0475114
3	0xbef6e91b	-0.4822472
4	0xbef8515c	-0.48499572
5	0x3d062337	0.032748427
6	0x3ccdb311	0.0251098
7	0xbdd5b6de	-0.1043527
8	0x3d4af190	0.04954678
9	0xbba4a6b3	-0.005024755
10	0xbe2541f8	-0.16138446
11	0xbe895cb5	-0.26828542
12	0xbd97f703	-0.074201606
13	0xbe3f6418	-0.18690526
14	0x3e00a53c	0.12563032
15	0xbf02718f	-0.50954527
16	0xbea49c89	-0.32150677
17	0xbebd8b69	-0.37020424
18	0xbee7bc48	-0.45260835
19	0xbd51d7fb	-0.051231366
20	0xbc3a80b0	-0.011383221
21	0xbe0a17dc	-0.13485664
22	0xbebca629	-0.3684552
23	0xbe05002d	-0.12988348
24	0xbe9a7c9b	-0.3017319
25	0xbd7065e1	-0.05869091
26	0x3e404de3	0.18779711
27	0xbdafbe37	-0.085812025
28	0xbdb09c1b	-0.08623525
29	0xbe97ff65	-0.29687038
30	0xbea2c23c	-0.31788814
31	0xbe27e11e	-0.16394469
32	0xbea4c172	-0.32178837
33	0x3cb4c9e8	0.022068933
34	0xbe84cd52	-0.25937897
35	0xbe50b590	-0.2038176
36	0x3da10c9a	0.07863732
37	0xbdb6caf1	-0.08925427
38	0xbe86d8a9	-0.26337174
39	0xbe971b54	-0.29513037
40	0xbd2bc928	-0.041939884
41	0xbef87c41	-0.48532298
42	0xbf18c671	-0.596778
43	0xbe806f84	-0.2508508
44	0x3aec7785	0.0018040991
45	0xbeb06073	-0.34448585
46	0xbd008995	-0.03138121
47	0x3d48deec	0.04904072
48	0x3eb37865	0.3505279
49	0xbe12d1ec	-0.14337891
50	0xbe5d4183	-0.21607022
51	0xbef1d6ec	-0.47234285
52	0xbe551c0a	-0.20811477
53	0xbd8f3472	-0.06992425
54	0x3d07f091	0.033188406
55	0xbe488e66	-0.1958557
56	0xbdaf4738	-0.08558506
57	0x3e8580e7	0.26074907
58	0xbe9b4b0c	-0.30330694
59	0xbe0942d1	-0.13404395
60	0x3d781ddc	0.06057535
61	0xbd305a9d	-0.043055166
62	0x3d9d6bfb	0.07686611
63	0x3b84d3fb	0.0040535904
64	0xbe7f1b6a	-0.24912801
65	0xbdbd1ff8	-0.09234613
66	0xbeb13c53	-0.34616336
67	0xbd4a7f6e	-0.049437933
68	0xbebacd30	-0.3648467
69	0xbdea24b0	-0.11432779
70	0x3c8a624e	0.016892578
71	0xbd173586	-0.03691628
72	0xbe25c656	-0.1618894
73	0x3e6a8e48	0.22905838
74	0xbe7724a9	-0.24135078
75	0xbe9ba545	-0.30399528
76	0xbb4c682d	-0.0031190023
77	0xbeb40a9d	-0.35164347
78	0xbc59ec4f	-0.013300969
79	0xbf03b454	-0.51447034
80	0xbe70b098	-0.23504865
81	0xbe23dc7e	-0.1600208
82	0x3cfc72e2	0.0308165
83	0xbe02823a	-0.1274499
84	0xbe8f4fc4	-0.27990544
85	0xbe4213e0	-0.18952894
86	0xbe60d4b1	-0.21956135
87	0xbe0aeb19	-0.13566245
88	0xbe82ae76	-0.25523728
89	0xbee9257c	-0.4553641
90	0x3e633b3e	0.22190568
91	0xbd1d13f9	-0.038349126
92	0xbd6bfebc	-0.05761598
93	0xbe4a2b5d	-0.19743104
94	0xbee0037a	-0.43752652
95	0xbddfe87a	-0.10933013
96	0xbe30ba07	-0.17258464
97	0xbeb1f9c1	-0.3476086
98	0xbc878bdd	-0.016546184
99	0xbd5c7189	-0.053819213
100	0xbdcf2469	-0.101143666
101	0xbe1b409f	-0.1516137
102	0xbeb03b96	-0.3442046
103	0x3d08349d	0.0332533
104	0xbeafb4c8	-0.34317613
105	0xbd431cfb	-0.04763506
106	0xbc981c4d	-0.018568182
107	0xbee71e90	-0.45140505
108	0x3e91f0d4	0.2850405
109	0x3e1ce91c	0.15323299
110	0xbdeeb3c0	-0.11655378
111	0xbed03835	-0.40667883
112	0xbe179a97	-0.14805065
113	0xbe80f97b	-0.25190338
114	0xbe6252fa	-0.22101966
115	0xbd363715	-0.044486124
116	0xbee0fadb	-0.43941388
117	0xbe0cd4ee	-0.13753101
118	0xbe96921a	-0.29408342
119	0xbe8e0d64	-0.2774459
120	0xbdf45d1d	-0.119318224
121	0xbec55e6f	-0.3854861
122	0x3bf31cf3	0.0074192225
123	0x3e6dff81	0.23241998
124	0xbe60d699	-0.21956863
125	0x3a54d3f7	0.00081187434
126	0xbe8ca120	-0.2746668
127	0xbea52b7b	-0.32259735

net.2.weight f4 [128, 128]
0	0xbef06b36	-0.46956795
1	0xbf0e6569	-0.5562349
2	0xbe45bb5f	-0.19309758
3	0xbea1f0bc	-0.31628978
4	0x3d2e989a	0.042626
5	0x3e364f1a	0.17803612
6	0xbd9e61cc	-0.07733497
7	0x3d38b660	0.0450958
8	0xbe23d55e	-0.15999362
9	0xbddb6f76	-0.10714619
10	0x3c80dcc0	0.015730262
11	0xbe667fac	-0.2250964
12	0x3d9e49b7	0.07728904
13	0xbebb3bce	-0.36569065
14	0xbcd4fe81	-0.026000263
15	0xbede2503	-0.43387613
16	0x3d1773fd	0.03697585
17	0xbef0d7bd	-0.47039595
18	0x3ec34469	0.3813813
19	0xbe1a6628	-0.15078032
20	0x3dafd853	0.085861824
21	0x3e571fab	0.21008174
22	0xbca84bf3	-0.020544028
23	0xbdce3dde	-0.10070394
24	0xbe44a1a6	-0.19202289
25	0xbd485a66	-0.048914336
26	0x3cde756c	0.0271556
27	0x3b870ca9	0.0041213823
28	0x3e46f752	0.19430283
29	0x3d1e0e10	0.03858763
30	0x3d18407c	0.037170872
31	0xbef59ae7	-0.47969744
32	0x3d58ba40	0.052911997
33	0x3da5c7b3	0.0809473
34	0xbe38b241	-0.18036748
35	0xbe8d89f6	-0.27644318
36	0xbe021e2f	-0.12706827
37	0xbd6e344d	-0.058155347
38	0xbc4d162a	-0.012517491
39	0x3e3648cf	0.17801212
40	0xbd5370bc	-0.051621184
41	0xbeab9bae	-0.33517212
42	0x3dc4ff34	0.09618989
43	0xbef7d3d9	-0.48403814
44	0x3d699327	0.0570251
45	0xbef2321c	-0.47303855
46	0xbf7df443	-0.9920084
47	0xbdffa30f	-0.12482273
48	0xbe7cb6fa	-0.24679175
49	0x3e04d7f0	0.12972999
50	0xbe7f3c5e	-0.24925372
51	0x3e0eef66	0.13958511
52	0x3de2b23d	0.110691525
53	0xbda3e795	-0.08003155
54	0x3e288630	0.16457438
55	0xbf25ef3f	-0.64818186
56	0xbd5ea96a	-0.054360785
57	0xbf15c42a	-0.5850245
58	0xbf112301	-0.56694037
59	0xbdbff8d3	-0.09373631
60	0xbe20cf29	-0.15704025
61	0xbd4fc3d6	-0.050723873
62	0xbef02849	-0.46905735
63	0xbe5f6be5	-0.21818502
64	0xbe6702fa	-0.22559729
65	0xbd854a2c	-0.06508288
66	0xbdde2baa	-0.10848172
67	0x3d95aeab	0.07308706
68	0x3ef9f2ba	0.48817998
69	0x3e3d1611	0.18465449
70	0xbecc0f7b	-0.3985556
71	0xbefd1f5a	-0.49437982
72	0xbe27a2c8	-0.1637069
73	0x3e40f4f9	0.1884345
74	0xbc924149	-0.017853396
75	0xbd67b68c	-0.056570575
76	0x3c27b6c8	0.01023645
77	0x3ea1d1ec	0.3160547
78	0xba1d1e5b	-0.0005993598
79	0xbf10ff40	-0.5663948
80	0x3dd31849	0.103073664
81	0xbf1c587b	-0.6107251
82	0xbdab4499	-0.08362693
83	0xbecc2bdf	-0.3987722
84	0xbee7fe5c	-0.45311248
85	0xbedbec04	-0.42953503
86	0xbe2468e4	-0.16055638
87	0x3c1db8f9	0.00962662
88	0x3c95fdf3	0.018309569
89	0x3e3a89b1	0.18216588
90	0xbe3c3518	-0.18379629
91	0xbc9ea43c	-0.019365422
92	0xbf549b9b	-0.83049935
93	0xbf6a4a30	-0.9151945
94	0xbe462c84	-0.19352919
95	0xbe575961	-0.21030189
96	0x3b05c0c0	0.0020409077
97	0xbd72dc89	-0.05929235
98	0x3c319311	0.010838286
99	0x3dec7477	0.115456514
100	0x3e51d826	0.2049261
101	0xbd475bb3	-0.048671436
102	0xbeae3a77	-0.3402898
103	0x3d6bdb9b	0.05758248
104	0xbda31e32	-0.07964744
105	0x3e3730a0	0.17889643
106	0xbecc9b42	-0.39962202
107	0xbd86a2a7	-0.06573992
108	0x3caaaf5b	0.02083557
109	0x3c8a2112	0.016861472
110	0xbdf9109c	-0.12161371
111	0xbdd14078	-0.102173746
112	0xbd4a1d20	-0.049344182
113	0xbe7931b3	-0.24335365
114	0xbf42bb1f	-0.76066774
115	0x3e4a5ac2	0.19761184
116	0x3e522cdc	0.20524925
117	0xbfd3fc4c	-1.656137
118	0xbf269402	-0.6506959
119	0xbd4c1351	-0.04982311
120	0xbd9d1c97	-0.07671469
121	0xbdb00d3d	-0.08596275
122	0xbe4c2bbc	-0.19938558
123	0x3c854f30	0.016273111
124	0x3d80d01e	0.06289695
125	0xbb8227c1	-0.003972024
126	0x3e21bd4a	0.15794864
127	0x3d3a467f	0.045477387
128	0x3ea10c7a	0.3145483
129	0x3e529994	0.20566398
130	0x3da760fd	0.08172796
131	0xbe053df9	-0.13011922
132	0x3db18972	0.08668794
133	0x3d6eb1e2	0.05827511
134	0xbd55c476	-0.052189313
135	0xbd6634ad	-0.05620258
136	0x3df8f561	0.12156177
137	0xbf428367	-0.75981754
138	0x3ec014bd	0.37515822
139	0x3edba8d8	0.42902255
140	0xbc9b10ee	-0.018928971
141	0x3f1ca1f6	0.6118463
142	0x3daa30c2	0.08310081
143	0x3dd0b3d7	0.10190552
144	0x3d207103	0.039170276
145	0xbd875308	-0.06607634
146	0x3da241ef	0.07922732
147	0xbeac4e4f	-0.33653495
148	0xbd632d61	-0.0554632
149	0x3e1e3327	0.154492
150	0x3be2ec28	0.0069251247
151	0x3ef255e2	0.47331148
152	0xbdf8aa0a	-0.121418074
153	0xbd134b03	-0.03596021
154	0xbf0c5ca4	-0.5482886
155	0x3dad4e2f	0.08462178
156	0xbedda354	-0.43288672
157	0x3e2ffec4	0.17187029
158	0x3d8fe9a2	0.07026984
159	0x3dce4286	0.10071282
160	0x3c7611df	0.015018909
161	0x3d529fe0	0.051422
162	0x3d8a32b2	0.067479506
163	0x3ea5ea9b	0.32405552
164	0xbe25e9f9	-0.16202535
165	0x3da9e3fe	0.08295439
166	0xbe387eee	-0.1801717
167	0xbe19ed49	-0.15031923
168	0xbcfc2876	-0.030781012
169	0xbc09b958	-0.008406006
170	0xbe461e9f	-0.19347619
171	0x3eb49c68	0.35275578
172	0xbda478e3	-0.0803087
173	0x3e98d118	0.29847026
174	0x3d4335e6	0.047658823
175	0xbf3d55fb	-0.7395932
176	0xbe8ee296	-0.27907246
177	0xbdffcd7d	-0.12490366
178	0x3e83e11c	0.25757682
179	0x3e9667cf	0.29376075
180	0x3d6b354b	0.05742387
181	0x3d20ba52	0.03924019
182	0xbec5f940	-0.38666725
183	0x3f3c68fa	0.7359768
184	0x3ee37eb4	0.44432604
185	0xbe654337	-0.22388922
186	0xbd1cb6ae	-0.038260154
187	0xbd8aa70d	-0.06770144
188	0x3e33a2a7	0.17542516
189	0xbf646622	-0.8921834
190	0xbd8cbf8c	-0.06872472
191	0xbd8f43a2	-0.06995322
192	0x3a77d247	0.0009453636
193	0x3d821e63	0.06353452
194	0x3e109f43	0.14123254
195	0x3ce4ebc0	0.027944446
196	0x3ee2668a	0.44218856
197	0xbe1491d3	-0.14508753
198	0x3eeb3394	0.45937788
199	0x3e07c174	0.1325739
200	0x3d772544	0.060338274
201	0xbea901a5	-0.33009067
202	0xbd65920d	-0.056047488
203	0x3d70f414	0.05882652
204	0xbdaa8572	-0.08326234
205	0x3ce66a0a	0.028126735
206	0xbd96789a	-0.07347222
207	0x3e318a95	0.17338021
208	0xbea6a079	-0.32544306
209	0x3d9947c7	0.074843936
210	0x3ec63b93	0.38717327
211	0x3e01b79e	0.126677
212	0x3e1c798e	0.15280744
213	0x3e3df9b9	0.18552293
214	0xbd52554a	-0.05135087
215	0xbd505398	-0.05086097
216	0xbe7111a9	-0.23541893
217	0x3d884b2b	0.06654962
218	0xbe48c62a	-0.19606844
219	0xbc4fd01b	-0.012683894
220	0x3e601e66	0.21886596
221	0x3de2af85	0.11068634
222	0x3ee710ca	0.45129997
223	0xbddf9788	-0.10917574
224	0x3ece01b3	0.4023567
225	0xbd87447e	-0.06604861
226	0xbe8a4439	-0.27005175
227	0xbeed355e	-0.46329778
228	0xbd1e3f59	-0.03863463
229	0x3eb09b66	0.3449356
230	0x3ed78588	0.42094064
231	0xbd0e1f92	-0.034698077
232	0x3dec0e43	0.11526158
233	0xbe690634	-0.22756273
234	0xbb93c322	-0.0045093456
235	0x3e3ad3f1	0.18244912
236	0xbf44f124	-0.7693045
237	0x3cad80c5	0.021179566
238	0xbe795da6	-0.2435213
239	0xbdcafdd0	-0.09911692
240	0xbe21f7f8	-0.15817249
241	0x3e7e319a	0.24823609
242	0x3beca40d	0.007221705
243	0xbe8c13a8	-0.27358747
244	0xbda8837a	-0.08228202
245	0x3ecbdcd6	0.39816922
246	0xbcbd5f9b	-0.023116877
247	0xbc51dfb4	-0.012809683
248	0xbcada255	-0.02119557
249	0x3df8a74e	0.12141286
250	0x3e280653	0.16408662
251	0xbe908bca	-0.2823165
252	0x3cc72d32	0.024313543
253	0x3cd5e26d	0.026108945
254	0x3da45911	0.080248006
255	0xbe32b83c	-0.17453092

net.2.bias f4 [128]
0	0x3ec7a687	0.38994238
1	0xbedd3483	-0.43204126
2	0x3c580e1f	0.0131869605
3	0xbdb35645	-0.08756689
4	0xbd7a17c5	-0.061057825
5	0xbeaae064	-0.3337432
6	0xbe8d94e4	-0.27652657
7	0x3e807543	0.25089464
8	0xbcbc95e6	-0.023020696
9	0xbe8f8c11	-0.2803655
10	0xbecebc6d	-0.40378132
11	0xbdb2b9e5	-0.08726863
12	0xbe50e443	-0.20399575
13	0xbda08599	-0.07837982
14	0xbe85ddb9	-0.26145723
15	0xbe7ccce5	-0.24687536
16	0xbeb5f568	-0.35538793
17	0xbe7ccd53	-0.246877
18	0x3e850a0f	0.25984237
19	0xbde7d753	-0.11320367
20	0xbe13bfbf	-0.14428614
21	0x3e01675a	0.12637082
22	0xbd1f049d	-0.03882276
23	0xbe8a9c35	-0.27072302
24	0xbe2d0de3	-0.16899829
25	0xbd9fe00e	-0.07806407
26	0xbebbffce	-0.367186
27	0x3c237723	0.009977135
28	0x3d2e162c	0.042501613
29	0xbdbb5a93	-0.09148135
30	0xbeb0e90d	-0.34552804
31	0x3d9e379d	0.07725451
32	0x3d67b7b8	0.056571692
33	0xbe7e7125	-0.24847849
34	0xbde8f6f0	-0.113752246
35	0x3cd80e3e	0.026373979
36	0xbeab986c	-0.33514726
37	0xbdfff336	-0.12497561
38	0xbe5aa04d	-0.21350212
39	0xbcc74602	-0.024325375
40	0x3c89c5a7	0.01681788
41	0x3db114da	0.08646555
42	0xbeaeaf10	-0.34117937
43	0x3de22d9a	0.11043854
44	0xbe20d926	-0.15707836
45	0xbeb468ec	-0.352363
46	0xbe59970a	-0.21249023
47	0xbe30603d	-0.17224212
48	0xbe0377f3	-0.12838726
49	0xbe7ac999	-0.24490966
50	0xbdb46399	-0.08808059
51	0xbe9c6379	-0.30544642
52	0xbdf9b082	-0.12191869
53	0xbdcc97cf	-0.09989893
54	0xbe53219a	-0.20618287
55	0xbda920e2	-0.08258225
56	0xbd6388dc	-0.05555044
57	0xbd3a186a	-0.04543344
58	0x3d31baf0	0.043391168
59	0xbdf0c235	-0.11755792
60	0xbe8e6437	-0.27810833
61	0xbd9ba3ab	-0.075995766
62	0xbe2442c7	-0.16041099
63	0xbda56ff7	-0.08077996
64	0xbe2e44b2	-0.17018393
65	0xbd8acc57	-0.06777256
66	0xbda61663	-0.08109739
67	0xbe72955d	-0.2368979
68	0xbe1cf2df	-0.15327023
69	0xbd5edf9a	-0.05441246
70	0xbe78ef26	-0.24309978
71	0xbd847493	-0.06467547
72	0xbe8c67be	-0.274229
73	0xbdcae6a8	-0.099072754
74	0xbea9dcb8	-0.33176208
75	0x3c2bc72c	0.010484498
76	0xbdebdd1a	-0.11516781
77	0xbd9d3397	-0.076758556
78	0xbdfa1aa3	-0.12212112
79	0xbe393b31	-0.18088986
80	0xbe8ba212	-0.27272087
81	0xbdd53edd	-0.10412381
82	0xbd6601c4	-0.056154028
83	0xbe8e6a71	-0.27815583
84	0xbd82b2ca	-0.063817576
85	0xbed93549	-0.42423466
86	0xbddd42e5	-0.10803775
87	0xbe74f711	-0.23922373
88	0xbdd44497	-0.10364645
89	0xbeadd471	-0.33951142
90	0x3dc82090	0.09771836
91	0xbe75487a	-0.23953429
92	0x3e9fb444	0.3119222
93	0xbd4c3698	-0.049856752
94	0xbec00f60	-0.3751173
95	0xbe420ef2	-0.18951014
96	0xbddbfcbf	-0.10741567
97	0xbe8f087f	-0.2793617
98	0xbcbd6886	-0.02312113
99	0xbe3a91e1	-0.18219711
100	0xbe945e87	-0.2897837
101	0xbe8823a2	-0.26589686
102	0x3dafbbe4	0.08580759
103	0xbea91537	-0.33023998
104	0xbe9f4b17	-0.31111977
105	0xbdb18493	-0.08667865
106	0xbe8f71d9	-0.28016546
107	0xbeb037b8	-0.3441751
108	0xbe90cc4a	-0.2828086
109	0x3e725579	0.23665418
110	0x3d8944fa	0.06702609
111	0xbce2e489	-0.027696865
112	0xbe7bbaa2	-0.24582914
113	0xbdbbea62	-0.09175564
114	0x3d043035	0.032272536
115	0xbe20ba88	-0.15696156
116	0xbe945cff	-0.289772
117	0x3bab6207	0.0052301916
118	0xbde1caf4	-0.11025038
119	0xbe862c36	-0.26205605
120	0xbd784d8a	-0.060620822
121	0xbd555424	-0.052082196
122	0xbe789eaa	-0.24279276
123	0xbea2a647	-0.31767485
124	0xbeaae29c	-0.33376014
125	0xbeca151a	-0.39469224
126	0xbe8c40e3	-0.27393255
127	0xbe966a99	-0.29378203

net.4.weight f4 [7, 128]
0	0x3ed243ce	0.41067356
1	0x3e2fefd5	0.17181332
2	0xbd64826b	-0.05578844
3	0x3d81330f	0.06308567
4	0xbd9d3450	-0.076759934
5	0x3e1937d5	0.14962704
6	0x3efb984c	0.4913963
7	0x3eef90da	0.467902
8	0x3d8acd14	0.06777397
9	0x3d57c12d	0.05267446
10	0x3e04ebf0	0.12980628
11	0xbeb541bf	-0.35401723
12	0xbd71a314	-0.058993414
13	0x3e7729e3	0.24137072
14	0x3e810e9e	0.25206465
15	0x3efdfd94	0.49607527
16	0x3e29c31f	0.16578339
17	0x3d5cd6f0	0.053915918
18	0x3f0536f0	0.5203695
19	0x3e116adf	0.14200924
20	0x3c8c82a2	0.017152134
21	0x3eb6fd66	0.35740203
22	0x3c0ee78a	0.008722195
23	0x3e05750d	0.13032933
24	0x3deb1396	0.11478345
25	0x3d6f350d	0.058400203
26	0x3dc75cd2	0.09734501
27	0x3eb24193	0.34815654
28	0xbf0dfc31	-0.5546294
29	0xbdc85028	-0.097809136
30	0x3daaaaad	0.08333335
31	0xbdcfdda3	-0.10149696
32	0x3ead6c0f	0.33871505
33	0x3d4628e2	0.048378833
34	0x3a5db3dc	0.0008457282
35	0x3d69bba6	0.05706372
36	0x3e9157da	0.28387338
37	0xbd59b127	-0.05314746
38	0x3e8fcbb7	0.2808511
39	0x3ec1c03b	0.37841973
40	0x3ecab637	0.39592144
41	0x3dda4eb6	0.10659544
42	0xbd626a18	-0.05527696
43	0x3d2d11eb	0.042253416
44	0x3e5fc7c8	0.21853554
45	0xbe82d0bf	-0.25549886
46	0x3e916f3f	0.28405187
47	0x3e83737c	0.25674045
48	0x3bbd5c31	0.0057788123
49	0xbdf7441f	-0.1207354
50	0xbeeb9dec	-0.46018922
51	0xbe9d1ed6	-0.30687588
52	0x3d735630	0.059408367
53	0xbe9ca01e	-0.3059091
54	0xbe1053f3	-0.14094524
55	0xba6d89b8	-0.0009061354
56	0x3b22cb48	0.0024840403
57	0x3d393506	0.045216583
58	0x3e5b03c7	0.2138816
59	0x3ec04dc2	0.37559325
60	0x3d272788	0.040809184
61	0x3ee61356	0.44936627
62	0xbe8d1616	-0.27555913
63	0x3d218113	0.039429735
64	0xbeeb2ca5	-0.459325
65	0xbd12b268	-0.035814673
66	0xbcee5b18	-0.029096171
67	0x3e137318	0.14399374
68	0x3d6f5a68	0.058435827
69	0xbeb8bea5	-0.3608295
70	0x3d71dd19	0.059048746
71	0x3eade294	0.33961928
72	0x3e7c8117	0.24658619
73	0xbd134542	-0.03595472
74	0x3e7d0710	0.24709725
75	0x3d942aa7	0.07234698
76	0xbbbac7b4	-0.005700076
77	0xbd83073f	-0.063978665
78	0xbdc3bbd3	-0.09557309
79	0xbe6e33da	-0.23261967
80	0x3da79778	0.08183187
81	0xbe5de159	-0.21667995
82	0xbd6dff9d	-0.0581051
83	0x3e64e5c6	0.22353277
84	0x3e5fc390	0.21851945
85	0xbda2fbec	-0.079582065
86	0x3daead41	0.08529139
87	0xbe497869	-0.19674839
88	0x3d7f683b	0.06235526
89	0x3e648f42	0.22320274
90	0x3f20c21c	0.6279619
91	0x3edcde23	0.43138227
92	0x3df06eaa	0.117398575
93	0x3db21c0d	0.086967565
94	0x3e694a74	0.22782308
95	0xbe47a180	-0.19495201
96	0xbd47b2b1	-0.048754398
97	0xbe4d00c1	-0.20019819
98	0xbeb28f3b	-0.348749
99	0xbe757c73	-0.23973255
100	0x3ea73b86	0.326626
101	0x3d4f5c3d	0.050625075
102	0xbe752588	-0.23940098
103	0x3ccbcabc	0.024876945
104	0x3df0287c	0.11726472
105	0x3d297988	0.041375667
106	0xbdab9ec7	-0.08379894
107	0x3e614e1a	0.2200245
108	0x3e36150e	0.17781469
109	0x3e344b36	0.17606816
110	0x3ded9e5b	0.116024695
111	0x3c048a38	0.008089595
112	0xbdd82d5f	-0.10555529
113	0x3dfc1d64	0.12310293
114	0xbf061ce6	-0.52387846
115	0x3e36dc8e	0.17857572
116	0x3e8a140f	0.26968428
117	0x3daaa121	0.08331514
118	0xbc449ac8	-0.011999793
119	0x3e0fb149	0.14032473
120	0xbd8b1c83	-0.067925476
121	0xbf3b667c	-0.73203254
122	0x3d8bee07	0.068325095
123	0x3d21b1f5	0.039476354
124	0x3edf2934	0.43586123
125	0x3bbf05eb	0.005829563
126	0x3e33f7a8	0.17574942
127	0x3e437894	0.19088966
128	0x3e194d93	0.14970998
129	0x3e36195e	0.17783114
130	0x3eaf0adc	0.34187973
131	0x3d004776	0.03131815
132	0x3d82567e	0.06364153
133	0x3e6de2a9	0.23230995
134	0x3d86911c	0.06570646
135	0xbdb8d1ec	-0.090244144
136	0x3bffbef2	0.007804745
137	0xbdbd6e2d	-0.0924953
138	0x3eab32d1	0.33437207
139	0xbf0a11c2	-0.53933346
140	0x3e5a5e97	0.21325146
141	0xbea3e4a0	-0.32010365
142	0x3e4345e7	0.19069634
143	0x3ea868c4	0.3289243
144	0xbe18cdaf	-0.14922212
145	0xbe495d86	-0.19664583
146	0xbec2a417	-0.38015816
147	0x3dedcc24	0.11611202
148	0x3cb66ef4	0.022269703
149	0x3f14a449	0.5806318
150	0xbd9be5c2	-0.07612182
151	0x3e4ca81f	0.19986008
152	0xbe80c646	-0.2515127
153	0xbd122da0	-0.035688043
154	0x3e04c29e	0.12964866
155	0xbdccbfb8	-0.09997505
156	0xbe891a50	-0.26777887
157	0xbe334746	-0.17507657
158	0x3e28c981	0.16483118
159	0xbb847ca1	-0.0040431772
160	0xbe7f09cf	-0.24906085
161	0x3db04fa8	0.08608943
162	0xbc0c10cf	-0.008548929
163	0x3de34549	0.110971995
164	0x3e4531c9	0.19257273
165	0xbd2074f3	-0.03917403
166	0xbc641f49	-0.013923475
167	0x3ee84583	0.45365533
168	0x3f1a919f	0.6037845
169	0x3e59122e	0.21198341
170	0x3d8c7533	0.068582915
171	0x3dde4b54	0.108542114
172	0x3e8e33a0	0.27773762
173	0xbed8a9f7	-0.42317173
174	0x3f007f05	0.50193816
175	0x3dcb1be2	0.099174276
176	0x3dc59556	0.09647624
177	0x3e7b865f	0.24562977
178	0xbf2ef2a6	-0.68339
179	0x3ebe017b	0.37110505
180	0xbcea1e75	-0.028578976
181	0x3c6d0526	0.0144665595
182	0xbf277ed5	-0.65427905
183	0x3d362520	0.044469
184	0x3d5700d1	0.052491013
185	0xbcfc7607	-0.030817999
186	0x3c666944	0.014063183
187	0xbe049284	-0.12946516
188	0x3d9cfeac	0.07665762
189	0xbd3ddf6f	-0.04635566
190	0x3e53a7c0	0.2066946
191	0xbd06d14c	-0.032914445
192	0x3df92a42	0.12166263
193	0xbd88f2bc	-0.06686923
194	0xbdafb384	-0.08579162
195	0x3ed0b4bc	0.4076289
196	0x3e031a0c	0.12802905
197	0x3e6bbf69	0.23022236
198	0x3da8edf2	0.082485095
199	0xbc170311	-0.00921704
200	0xbd1a934a	-0.037738122
201	0xbca26fd9	-0.019828724
202	0x3e21635d	0.1576056
203	0x3bd249cf	0.00641749
204	0x3c0bc21a	0.008530164
205	0x3cd9bcbe	0.026579257
206	0xbec7cb4d	-0.39022294
207	0x3ea8a8b1	0.329412
208	0x3d93c548	0.07215363
209	0x3e345b55	0.17612965
210	0xbc26f917	-0.010191224
211	0x3e0bd351	0.1365483
212	0xbf0277ad	-0.5096386
213	0x3d537556	0.051625572
214	0xbc89f2ca	-0.016839404
215	0x3ed378aa	0.41302997
216	0xbc178dfa	-0.009250158
217	0xbd07b508	-0.03313163
218	0xbe89b872	-0.26898533
219	0x3e553a70	0.20823073
220	0x3ef710d9	0.4825504
221	0x3d77a518	0.06046018
222	0x3d87b810	0.06626904
223	0x3eb1909c	0.3468064
224	0x3cbdebb6	0.023183685
225	0x3efcee77	0.49400684
226	0xbe2ba830	-0.16763377
227	0x3d60d888	0.054894
228	0x3e970d9c	0.2950257
229	0x3d6f2ad4	0.058390453
230	0xbe87ed26	-0.26548117
231	0x3db1af23	0.08675983
232	0x3f08ac05	0.5338748
233	0x3d4070ed	0.046982694
234	0x3e699ee4	0.22814518
235	0x3e5a2616	0.21303591
236	0x3d10d46f	0.035358842
237	0x3e13ad4a	0.14421573
238	0x3d1c34e6	0.038136385
239	0xbd7fc252	-0.062441178
240	0x3e0cd3ec	0.13752717
241	0x3b8f79c7	0.0043785307
242	0xbbe918fe	-0.007113575
243	0xbee1b301	-0.44081882
244	0xbcfde0ef	-0.030991046
245	0x3dcede73	0.101010226
246	0xbd84f58d	-0.064921476
247	0x3e238e67	0.15972291
248	0xbc565d24	-0.01308373
249	0x3d777294	0.060412005
250	0x3e4c48ac	0.19949597
251	0x3e9e1e7e	0.3088264
252	0xbe07a433	-0.13246231
253	0x3e7d98c9	0.24765314
254	0x3d9b60cd	0.07586823
255	0x3e0b9521	0.13631107

net.4.bias f4 [7]
0	0x3e05f755	0.13082631
1	0x3e15d0d2	0.1463044
2	0x3da7c77e	0.08192347
3	0x3e054dd3	0.13017969
4	0x3e20b78b	0.15695016
5	0x3d97a6ab	0.07404836
6	0x3d9dedfc	0.077114075
