qnet.pt (torch, 102065 bytes, 6 tensors)

net.0.weight f4 [128, 57]
0.541146 0.09853864 0.019250114 0.44389373 0.33764485 -0.20886922 -0.3368488 0.12692593
-0.16806734 -0.37926 0.16828029 0.18606257 -0.07903528 0.5089807 -0.09967022 -0.22700448
0.3791542 0.4324042 -0.027792053 -0.30035898 -0.37547994 -0.45783326 -0.1619606 -0.11138897
0.13211289 0.25114778 -0.09042744 0.095459476 0.35397008 -0.36102813 -0.444068 -0.5999494
0.054574937 0.08430178 0.40655047 -0.012023309 0.022728754 0.112361684 -0.002708931 0.3874992
-0.6256461 0.34825674 -0.3201265 0.513835 -0.6960328 0.44739872 0.13266629 0.59205335
-0.75760263 -0.34364554 -0.03970983 0.18477215 0.27820402 -0.21700041 0.026348399 -0.25306946
-0.07068755 0.22024141 0.15209776 -0.25320455 -0.005885762 0.19004722 0.09450618 -0.21437907
0.35781136 0.28672457 -0.2035727 0.018829793 0.006936126 0.22663334 0.12141338 -0.06722407
0.19045651 0.08956849 0.04158246 -0.04217709 0.047443975 0.18491776 0.09940445 0.3097565
0.10280389 -0.13700096 0.3355088 -0.013180194 -0.17689312 -0.3002647 0.066439636 -0.009999492
0.19940004 -0.56163377 0.12757814 -0.14987364 0.3315644 -0.48056477 0.24904576 -0.023526395
-0.0512541 -0.16182971 0.53893787 -0.035705652 -0.5981019 -0.4622333 -0.9964104 -0.7109738
0.15400721 -0.21978308 -0.26062962 -0.19635738 0.15322366 0.42845967 0.21960154 -0.23531875
0.105141744 0.10444811 -0.06436795 0.09385363 -0.41336122 0.19436426 -0.026896311 -0.27628565
-0.09618037 0.28616798 0.31501028 -0.0097421175 0.06380756 -0.47521865 0.11378455 0.2226011
-0.6693529 -0.18081473 -0.30738235 0.26327392 -1.1255862 -0.12475775 0.4708617 0.54960513
0.15463679 0.012097844 -0.34952697 0.35443634 0.15721427 -0.21744418 -0.43982092 0.6651761
0.37485066 -0.54308987 0.86350787 -0.18085244 0.63917416 -0.50883484 -0.39140934 -0.022057347
0.15221094 0.13116357 0.20287006 0.26935962 0.19114545 -0.14456461 0.39248812 -0.034358025
0.77300733 -0.3089574 -0.98128575 -0.24657835 -0.035057176 -0.16570543 -0.06059345 -0.30155015
-0.038791098 -0.14905523 -0.023446895 0.49886206 -0.28733185 0.32196802 -0.33628565 0.41995823
0.07251265 0.16113746 0.2309856 -0.18074593 -0.14315918 0.119778514 0.05139314 -0.25728336
0.15793659 0.4013861 0.099183075 0.13836731 0.19437832 0.23032096 0.4208844 -0.10178496
0.2702557 0.079543054 0.4199561 -0.4045347 -0.09628762 -0.103433885 -0.38343012 0.21699458
-0.122533865 0.47797063 -0.3289304 -0.03928876 -0.2298361 0.017907081 -0.21808363 0.3630427
0.043017615 0.13237984 0.025822533 0.15716718 0.18983668 0.14599477 0.078173496 0.1548905
0.2334276 0.13081272 -0.35546553 0.21163166 0.09231492 0.119618766 -0.21435218 0.04758257
-0.040962834 0.016490716 0.00015002555 -0.028536364 -0.18724208 0.3053585 -0.2938727 0.20672897
0.045848366 -0.07447978 -0.2824051 -0.1849455 -0.14970322 -0.21022534 0.46547306 0.17948483
0.08048887 0.08222098 -0.09950035 -0.19753756 0.18951255 -0.1454306 0.34551013 0.091633216
0.8427677 -0.30713832 0.031844515 -0.15576297 -0.3280356 0.4125173 0.07846227 -0.21258275
00000000: 8b88 0a3f a0ce c93d 6ab2 9d3c 0a46 e33e
00000010: c9df ac3e d0e1 55be 7277 acbe dff8 013e
00000020: d819 2cbe 5e2e c2be ab51 2c3e 3087 3e3e
00000030: 40dd a1bd 8f4c 023f e61f ccbd dd73 68be
00000040: 8020 c23e 1564 dd3e 29ac e3bc a7c8 99be
00000050: e83e c0be 1f69 eabe 00d9 25be e61f e4bd
00000060: 9a48 073e 7196 803e 0632 b9bd 4280 c33d
00000070: 913b b53e aed8 b8be e25c e3be 4996 19bf
00000080: f889 5f3d 69a6 ac3d 6227 d03e 6afd 44bc
00000090: a731 ba3c e21d e63d 5288 31bb 4c66 c63e
000000a0: 582a 20bf b54e b23e 9fe7 a3be b18a 033f
000000b0: 352f 32bf 7211 e53e acd9 073e cf90 173f
000000c0: 3ff2 41bf 4ff2 afbe c6a6 22bd e934 3d3e
000000d0: c270 8e3e 5b35 5ebe 99d8 d73c 5292 81be
000000e0: a2c4 90bd f786 613e 84bf 1b3e 07a4 81be
000000f0: 5add c0bb bd9b 423e 758c c13d 3086 5bbe
00000100: 0d33 b73e 90cd 923e 5d75 50be f040 9a3c
00000110: 7148 e33b 9212 683e 94a7 f83d c6ac 89bd
00000120: 0807 433e af6f b73d 5f52 2a3d e2c1 2cbd
00000130: 9d54 423d 155b 3d3e 8f94 cb3d 6798 9e3e
00000140: d98a d23d fb49 0cbe cfc7 ab3e bef1 57bc
00000150: 7823 35be 4bbc 99be 8111 883d e9d4 23bc
00000160: 862f 4c3e 3bc7 0fbf d8a3 023e 7a78 19be
00000170: cfc2 a93e 960c f6be da05 7f3e 6dba c0bc
00000180: d2ef 51bd b0b6 25be d5f7 093f 1740 12bd
00000190: 351d 19bf d8a9 ecbe c114 7fbf 6102 36bf
000001a0: 11b4 1d3e d10e 61be 3f71 85be e911 49be
000001b0: aae6 1c3e 115f db3e 3adf 603e 66f7 70be
000001c0: 8e54 d73d e4e8 d53d 58d3 83bd 5536 c03d
000001d0: 15a4 d3be 6d07 473e a755 dcbc 5075 8dbe
000001e0: 37fa c4bd 9c84 923e 0749 a13e 679d 1fbc
000001f0: 8aad 823d dc4f f3be e007 e93d 8bf1 633e
00000200: b65a 2bbf 7f27 39be 3861 9dbe d7cb 863e
00000210: 3513 90bf fe80 ffbd c914 f13e ecb2 0c3f
00000220: 1b59 1e3e 0936 463c 33f5 b2be ae78 b53e
00000230: c7fc 203e b0a9 5ebe 3530 e1be fb48 2a3f
00000240: 6dec bf3e f007 0bbf da0e 5d3f 6231 39be
00000250: eba0 233f 0043 02bf ce66 c8be 9cb1 b4bc
00000260: 2fdd 1b3e be4f 063e 2bbd 4f3e 81e9 893e
00000270: a2bb 433e bf08 14be 34f4 c83e 00bb 0cbd
00000280: cfe3 453f aa2f 9ebe 8b35 7bbf 097f 7cbe
00000290: 1d98 0fbd afae 29be d630 78bd c864 9abe
000002a0: 6ae3 1ebd efa1 18be b413 c0bc d96a ff3e
000002b0: 291d 93be fed8 a43e a22d acbe c404 d73e
000002c0: 8381 943d 3801 253e 7d87 6c3e 7615 39be
000002d0: 5298 12be 704e f53d 9d81 523d a5ba 83be
000002e0: 21ba 213e 7b82 cd3e 7f20 cb3d 29b0 0d3e
000002f0: 1c0b 473e 42d9 6b3e 297e d73e a274 d0bd
00000300: f55e 8a3e 78e7 a23d 7c04 d73e 2c1f cfbe
00000310: 7232 c5bd 25d5 d3bd f450 c4be d433 5e3e
00000320: 09f3 fabd 91b8 f43e 9169 a8be 40ed 20bd
00000330: 285a 6bbe dfb1 923c 5151 5fbe bce0 b93e
00000340: 3d33 303d 958e 073e c789 d33c 6ff0 203e
00000350: 8c64 423e a77f 153e 6d19 a03d 9d9b 1e3e
00000360: a507 6f3e c5f3 053e 94ff b5be f8b5 583e
00000370: 9b0f bd3d affa f43d 237f 5bbe f1e5 423d
00000380: a5c8 27bd 8a17 873c 2d50 1d39 18c5 e9bc
00000390: 63bc 3fbe f357 9c3e 7c76 96be c2b0 533e
000003a0: 7fcb 3b3d db88 98bd 6797 90be 5a62 3dbe
000003b0: cd4b 19be 5045 57be 7c52 ee3e dfca 373e
000003c0: 59d7 a43d 7963 a83d d7c6 cbbd 4947 4abe
000003d0: 940f 423e c2eb 14be b4e6 b03e 32aa bb3d
000003e0: a0bf 573f 3c41 9dbe 656f 023d 5480 1fbe
000003f0: 48f4 a7be 7835 d33e d4b0 a03d 4baf 59be

net.0.bias f4 [128]
0.15002762 -0.08726114 0.16820478 -0.17797817 -0.091863416 -0.24040638 0.021935837 0.119623095
-0.5312132 0.19489415 -0.104873136 0.084011935 0.030632837 -0.09770864 -0.22665115 0.019048799
-0.21965183 -0.42577693 0.068741776 -0.2768082 -0.0046389047 0.0031331338 0.18346961 -0.42635524
-0.47457844 0.12752765 -0.16046503 -0.4580037 -0.034272853 -0.11876359 0.22658235 -0.11362823
0.08330767 -0.47044143 -0.3737098 0.023380183 0.13654794 -0.40047243 -0.10799177 -0.12885188
-0.46970037 -0.05470396 -0.070860095 0.18608822 -0.024991285 0.04031548 0.21283363 -0.12330453
0.17863362 0.1754642 -0.09383381 -0.078495756 -0.49834234 -0.46514016 -0.51986855 -0.1433685
-0.114591174 -0.09011767 -0.29306796 -0.04851901 -0.07962029 0.14643297 -0.045652382 -0.09937437
-0.35063505 0.060375035 -0.09101456 -0.09844002 0.11364722 -0.19990885 -0.12001631 0.13031583
-0.09582969 -0.19637975 -0.08156715 0.14787515 0.17177388 -0.07789182 -0.09915348 0.28124377
-0.33212915 0.000979004 -0.3327742 -0.26455227 0.075135134 -0.23900044 -0.1903462 -0.4376217
0.23387603 -0.010482989 -0.037583534 -0.4124297 0.1011527 0.09643324 -0.05507136 0.23918992
0.15895353 0.13326392 0.00683519 -0.10810571 -0.1691439 -0.19993511 -0.027452119 0.021395987
-0.028323432 0.23660713 -0.03949701 -0.09259463 -0.07999673 -0.17275207 0.015232245 -0.3960174
0.0862209 -0.030424556 -0.25445208 -0.14431664 0.17424406 0.12761377 -0.45877275 0.10686222
0.20926648 -0.06700969 -0.29005298 -0.025033535 -0.08568684 -0.54436034 -0.24506465 -0.4293345
00000000: d7a0 193e f8b5 b2bd e03d 2c3e e93f 36be
00000010: e322 bcbd 172d 76be c9b2 b33c f4fc f43d
00000020: 97fd 07bf 5592 473e bac7 d6bd 730e ac3d
00000030: b7f1 fa3c 781b c8bd 3d17 68be 3a0c 9c3c
00000040: 69ec 60be 6fff d9be 7dc8 8c3d ceb9 8dbe
00000050: f401 98bb 4355 4d3b 75df 3b3e 3c4b dabe
00000060: f2fb f2be 9c96 023e f250 24be 767f eabe
00000070: b161 0cbd 533a f3bd 3405 683e ebb5 e8bd
00000080: 369d aa3d b3dd f0be e456 bfbe cc87 bf3c
00000090: 39d3 0b3e b90a cdbe ca2a ddbd bff1 03be
000000a0: 917c f0be 4211 60bd 191f 91bd e98d 3e3e
000000b0: 86ba ccbc d821 253d 0ff1 593e 1687 fcbd
000000c0: bbeb 363e e3ac 333e f12b c0bd 62c2 a0bd
000000d0: ba26 ffbe da26 eebe 1b16 05bf 31cf 12be
000000e0: c7ae eabd 9d8f b8bd 010d 96be dfbb 46bd
000000f0: f60f a3bd 86f2 153e fefd 3abd ca84 cbbd
00000100: 7086 b3be d04b 773d d765 babd ec9a c9bd
00000110: e0bf e83d e8b4 4cbe 1ccb f5bd 8371 053e
00000120: 5b42 c4bd c617 49be ae0c a7bd 956c 173e
00000130: 7ee5 2f3e bf85 9fbd fb10 cbbd 2fff 8f3e
00000140: d50c aabe ec51 803a 6161 aabe 6573 87be
00000150: 73e0 993d 88bc 74be 1dea 42be f40f e0be
00000160: 337d 6f3e d8c0 2bbc 31f1 19bd fc29 d3be
00000170: 2629 cf3d ca7e c53d 8292 61bd 34ee 743e
00000180: b7c4 223e 5676 083e bbf9 df3b 8766 ddbd
00000190: 0f34 2dbe cabb 4cbe 44e3 e0bc a346 af3c
000001a0: 8b06 e8bc 2449 723e 9ec7 21bd 41a2 bdbd
000001b0: 53d5 a3bd ebe5 30be ab90 793c cbc2 cabe
000001c0: 9594 b03d eb3c f9bc 8b47 82be bec7 13be
000001d0: 096d 323e 2fad 023e 43e4 eabe 94da da3d
000001e0: f449 563e 603c 89bd d381 94be 2113 cdbc
000001f0: 957c afbd 335b 0bbf 3af2 7abe bbd1 dbbe

net.2.weight f4 [128, 128]
0.17446774 0.06148869 -0.79053575 -0.19000314 -0.09228232 0.2237745 -0.1389688 -0.009054368
-0.4830812 -0.25079757 0.06250133 0.34819025 -0.6802991 0.30984637 0.3268793 0.086623035
0.106371425 -0.3426518 0.10777479 0.09712064 -0.13294132 -0.5370689 -0.15501218 -0.14961395
0.31571633 -0.10834744 -0.2576411 0.017498687 -0.19532664 0.044279393 -0.18000813 0.18353261
0.23660125 0.23780958 -0.1894238 -0.23664413 -0.55932635 -0.37369615 0.086079374 0.23377292
-0.21819028 0.06819456 -0.32138354 -0.067180745 0.028725369 0.16605994 0.08017869 -0.021891052
0.17071074 -0.2878786 -0.034836315 -0.071785 0.3242335 -0.13958482 0.4263978 -0.04389607
0.001472746 0.082435176 -0.14540055 0.009451886 -0.17803776 -0.60473394 -0.114167064 -0.12201923
-0.12372126 0.22503994 -0.019094156 -0.003811782 -0.0004568018 0.42052606 -0.122394025 0.01662571
0.037795942 -0.074421324 0.01270848 0.029215904 -0.22822654 0.032857846 0.20075418 -0.036976624
0.3503239 0.03684831 -0.19168659 -0.27804765 -0.0904206 0.053879045 -0.025426127 -0.25004473
0.016179424 -0.23316577 0.04257622 0.029562997 0.49238744 0.080133446 0.26270378 -0.3379207
0.0021360186 0.015499428 -0.4006791 0.009354672 0.044069774 -0.27488428 -0.37539235 0.06970835
-0.13590713 -0.4511344 -0.071537934 -0.28414544 -0.41008055 0.058601845 0.014118934 -0.15109967
0.02614558 -0.2670969 0.09814973 0.09105559 0.0055308426 0.03043026 -0.30284145 0.39945802
-0.17973566 0.120896176 0.22602743 -0.069299184 -0.053612303 -0.5116516 0.39425635 0.010057807
-0.24413009 0.22109461 0.26989883 -0.19313249 -0.1911284 -0.24924247 -0.21323861 -0.25434992
-0.32522482 -0.33624735 -0.30896586 0.31014884 0.21434659 -0.33540174 0.15051728 -0.03686102
0.043050267 0.13029853 0.12614341 -0.52232057 0.0763112 -0.380509 -0.61020845 0.13366501
-0.32251254 0.07446007 -0.22346595 0.0009639972 -0.026901837 0.007946366 0.19271742 -0.38739082
0.06469707 0.0065020532 0.37653306 -0.5471949 0.19027689 0.08018805 -0.0752258 -0.18934269
-0.29802427 0.06474782 0.54460555 -0.14527273 0.06673007 0.027741192 -0.08471872 0.08277836
0.47201464 0.06346476 -0.3123298 0.041522358 -0.09470651 -0.16937225 0.13114867 -0.34290233
0.00983523 -0.09346541 -0.22968696 0.054374244 -0.31355503 -0.3562934 -0.0023685235 0.054457933
0.14309908 0.21760328 0.049461972 -0.066570885 0.04762287 0.19174111 -0.38122877 -0.20914637
-0.070087686 -0.49576253 0.32948098 0.3111154 0.08006077 0.012258584 -0.10130251 0.025155587
-0.13795955 0.013929151 0.047521498 0.0418781 -0.10579076 0.01563631 -0.1371786 -0.04454779
-0.08208677 0.25383613 -0.11380093 0.002310026 0.08114606 -0.07247241 -0.021637086 0.22324573
-0.070993006 -0.5145008 -0.23381172 0.07449848 -0.037354358 -0.08646846 0.20982625 -0.024640389
-0.30655217 -0.33644804 -0.11081628 -0.07768121 0.09999985 -0.56380033 0.07457084 -0.09502543
0.033079248 -0.4101432 -0.004487228 0.27358085 -0.2801513 0.10626661 -0.3828523 -0.28114513
-0.08978584 0.027509144 0.14521892 -0.04478227 -0.030998217 -0.13548227 0.22414172 -0.18921292
00000000: aca7 323e 91db 7b3d 8d60 4abf 2f90 42be
00000010: 83fe bcbd 2425 653e d64d 0ebe c658 14bc
00000020: 6b56 f7be 8a68 80be b300 803d fe45 b23e
00000030: 1528 2ebf 2fa4 9e3e b95c a73e 6b67 b13d
00000040: 43d9 d93d 0f70 afbe 07b9 dc3d 30e7 c63d
00000050: c521 08be 597d 09bf 83bb 1ebe 6634 19be
00000060: 92a5 a13e 43e5 ddbd 89e9 83be 6859 8f3c
00000070: b503 48be 4f5e 353d 0d54 38be f9ef 3b3e
00000080: 9947 723e 5b84 733e 50f8 41be d752 72be
00000090: 0330 0fbf 1a55 bfbe 624a b03d 2b62 6f3e
000000a0: 466d 5fbe 97a9 8b3d 628c a4be 0f96 89bd
000000b0: 7751 eb3c 9e0b 2a3e ba34 a43d dd54 b3bc
000000c0: ccce 2e3e d364 93be 86b0 0ebd 0404 93bd
000000d0: ef01 a63e 53ef 0ebe d050 da3e 5ecc 33bd
000000e0: 2809 c13a c6d3 a83d e2e3 14be 15dc 1a3c
000000f0: 884f 36be d8cf 1abf 6cd0 e9bd 38e5 f9bd
00000100: 9261 fdbd df70 663e 596b 9cbc 17cf 79bb
00000110: e67e efb9 314f d73e b8a9 fabd a432 883c
00000120: ebcf 1a3d 356a 98bd 3a37 503c 3156 ef3c
00000130: 38b4 69be f395 063d 8192 4d3e cd74 17bd
00000140: a75d b33e 41ee 163d 7d49 44be 435c 8ebe
00000150: 6f2e b9bd 46b0 5c3d 744a d0bc dd05 80be
00000160: b68a 843c 02c3 6ebe 6764 2e3d 192e f23c
00000170: 351a fc3e 011d a43d 1c81 863e f103 adbe
00000180: 72fc 0b3b 50f1 7d3c d025 cdbe 5744 193c
00000190: 8282 343d a2bd 8cbe 6d33 c0be 40c3 8e3d
000001a0: 3d2b 0bbe 17fb e6be 7b82 92bd 837b 91be
000001b0: 14f6 d1be 7d08 703d 1a53 673c dfb9 1abe
000001c0: 412f d63c edc0 88be ba02 c93d 5a7b ba3d
000001d0: 123c b53b e148 f93c 090e 9bbe c385 cc3e
000001e0: a00c 38be 6a98 f73d bc73 673e bbec 8dbd
000001f0: 9398 5bbd 99fb 02bf f8db c93e 80c9 243c
00000200: 3dfd 79be a066 623e 2e30 8a3e 86c4 45be
00000210: 2ab7 43be 6b39 7fbe 395b 5abe 273a 82be
00000220: de83 a6be 9d28 acbe c630 9ebe d4cb 9e3e
00000230: ac7d 5b3e c7b9 abbe 3421 1a3e 95fb 16bd
00000240: 7a55 303d fa6c 053e bd2b 013e cdb6 05bf
00000250: 0c49 9c3d 13d2 c2be 9f36 1cbf 7bdf 083e
00000260: 5d20 a5be 857e 983d 42d4 64be c2b4 7c3a
00000270: 3e61 dcbc 7a31 023c b757 453e 1758 c6be
00000280: e67f 843d 2d0f d53b f1c8 c03e f714 0cbf
00000290: f2d7 423e a239 a43d fc0f 9abd 0de3 41be
000002a0: a396 98be 819a 843d 456b 0b3f 60c2 14be
000002b0: c6a9 883d 7f41 e33c 0281 adbd b387 a93d
000002c0: e7ab f13e d0f9 813d b1e9 9fbe 5913 2a3d
000002d0: 7df5 c1bd eb6f 2dbe d64b 063e e590 afbe
000002e0: f223 213c cb6a bfbd 0f33 6bbe 87b7 5e3d
000002f0: 498a a0be 176c b6be 3b39 1bbb 480f 5f3d
00000300: 9188 123e 65d3 5e3e a398 4a3d 5156 88bd
00000310: 3310 433d c857 443e 6b30 c3be 772a 56be
00000320: 228a 8fbd 96d4 fdbe bbb1 a83e 854a 9f3e
00000330: e7f6 a33d 3ad8 483c b177 cfbd 1713 ce3c
00000340: 4545 0dbe 1837 643c e7a5 423d 5f88 2b3d
00000350: d3a8 d8bd b817 803c 8c78 0cbe be77 36bd
00000360: 1c1d a8bd cff6 813e 7610 e9bd ce63 173b
00000370: e82f a63d 6a6c 94bd 4240 b1bc 879a 643e
00000380: c864 91bd 53b6 03bf 576c 6fbe a992 983d
00000390: e200 19bd 6016 b1bd b1dc 563e a4da c9bc
000003a0: 68f4 9cbe eb42 acbe a5f3 e2bd 5417 9fbd
000003b0: b9cc cc3d 3855 10bf 99b8 983d b19c c2bd
000003c0: 1b7e 073d 4afe d1be 9909 93bb ca12 8c3e
000003d0: fe6f 8fbe 4fa2 d93d 3705 c4be 41f2 8fbe
000003e0: a3e1 b7bd db5a e13c 45b4 143e 9d6d 37bd
000003f0: f9ef fdbc ddbb 0abe 6885 653e 08c1 41be

net.2.bias f4 [128]
-0.038976155 -0.10291014 -0.017688958 0.014006434 -0.08682263 0.42847458 0.058044184 0.0047238544
-0.106147386 -0.16172227 0.032043066 -0.09040117 -0.10221624 0.10832368 -0.07048376 -0.10233837
-0.15633968 -0.11660122 -0.0805112 0.04103766 -0.12225157 0.019934675 -0.09865977 0.104982875
-0.13439801 -0.04773198 -0.15260771 -0.08600209 -0.13747035 -0.1217489 0.03433313 -0.024767987
-0.08793927 0.11114295 -0.044951443 -0.07217111 0.08507241 -0.13826667 -0.13980564 -0.040081006
-0.028558617 0.21281832 -0.13727422 -0.008097663 0.3115689 -0.09820285 -0.13301949 0.18341263
0.07578421 0.07950095 0.12917611 -0.20512094 -0.08736493 0.00096808304 -0.18760052 0.11006997
-0.118108325 -0.1326908 -0.11886114 -0.04682764 0.22538264 0.34634888 -0.12722486 0.0789132
0.027655266 -0.09877603 0.03817591 -0.07156532 -0.2094153 -0.16573584 0.008877574 -0.07324711
0.019591095 -0.16248474 -0.02532753 0.3574449 -0.033518415 -0.13639511 -0.060183965 -0.10347984
-0.08335252 0.010232707 0.027109232 -0.023872565 0.043619525 -0.15233132 -0.1408324 -0.030584536
-0.09302068 -0.124067254 -0.16891944 -0.042938374 -0.11719304 0.03721044 -0.013589581 -0.04514651
-0.09913138 0.2582573 0.02120762 0.31301752 -0.10281274 -0.09447088 0.1510894 0.122625105
-0.032988198 -0.053304024 -0.22085305 0.06880984 0.06339026 0.007273801 -0.14053558 0.17832504
-0.098770835 0.14972585 -0.099324144 -0.03180464 -0.110830024 -0.17247605 -0.25043485 -0.018057961
-0.08914503 -0.09131356 -0.100635946 0.072180435 -0.066279165 -0.05114953 0.10795933 0.2069012
00000000: 76a5 1fbd 8dc2 d2bd 6fe8 90bc 3e7b 653c
00000010: 10d0 b1bd 0561 db3e bdbf 6d3d 90ca 9a3b
00000020: cd63 d9bd 869a 25be 973f 033d 4024 b9bd
00000030: bf56 d1bd ced8 dd3d ca59 90bd c896 d1bd
00000040: 8217 20be 9fcc eebd 0ee3 a4bd 1b17 283d
00000050: 085f fabd 0b4e a33c 220e cabd 4301 d73d
00000060: a29f 09be 9c82 43bd 3245 1cbe dd21 b0bd
00000070: 07c5 0cbe 7d57 f9bd e5a0 0c3d 3ce6 cabc
00000080: 8119 b4bd ea9e e33d 011f 38bd 72ce 93bd
00000090: 723a ae3d c795 0dbe 3629 0fbe fb2b 24bd
000000a0: c3f3 e9bc 0ced 593e 9d91 0cbe 0fac 04bc
000000b0: f585 9f3e 931e c9bd 4336 08be 85d0 3b3e
000000c0: c034 9b3d 65d1 a23d be46 043e 390b 52be
000000d0: 62ec b2bd f4c6 7d3a 5a1a 40be 5d6c e13d
000000e0: c7e2 f1bd 19e0 07be 786d f3bd 57ce 3fbd
000000f0: b5ca 663e a454 b13e 3c47 02be 3e9d a13d
00000100: 4c8d e23c 164b cabd 585e 1c3d d790 92bd
00000110: f770 56be a8b6 29be 3e73 113c 9502 96bd
00000120: 817d a03c 6662 26be ae7b cfbc 0503 b73e
00000130: 9b4a 09bd 29ab 0bbe 7683 76bd 3ded d3bd
00000140: bab4 aabd 15a7 273c 2e14 de3c 6690 c3bc
00000150: 63aa 323d befc 1bbe 5e36 10be 6c8c fabc
00000160: a081 bebd f916 febd 38f9 2cbe 26e0 2fbd
00000170: e802 f0bd f969 183d d5a6 5ebc 8ceb 38bd
00000180: 6505 cbbd 4d3a 843e 9abb ad3c d543 a03e
00000190: 7c8f d2bd f379 c1bd 2eb7 1a3e df22 fb3d
000001a0: a21e 07bd 5255 5abd 4d27 62be 2cec 8c3d
000001b0: c1d2 813d 1159 ee3b 8fe8 0fbe d79a 363e
000001c0: 5d48 cabd bc51 193e 756a cbbd 9545 02bd
000001d0: dafa e2bd 909d 30be ff38 80be 4aee 93bc
000001e0: ab91 b6bd 9b02 bbbd 381a cebd 56d3 933d
000001f0: 5fbd 87bd 2b82 51bd c819 dd3d e8dd 533e

net.4.weight f4 [7, 128]
-0.06692425 0.23470606 0.032442275 0.01992141 -0.012148248 0.26091623 -0.20081149 0.09168472
-0.06412765 -0.21031645 0.2094792 -0.123816006 0.043896448 0.34419233 -0.25308812 0.0809428
-0.35035345 -0.03281472 -0.03938547 0.35576856 -0.24107449 0.56277436 0.077961825 -0.07340135
-0.091115244 -0.32828262 -0.16621605 0.04240597 -0.06668928 0.00090278545 -0.104737945 0.4279943
-0.19355294 0.0052739657 -0.064040825 0.18787074 0.40145048 -0.24093644 -0.22173202 0.056698695
0.18003981 0.3003132 -0.4593937 0.03295071 0.35097212 -0.060325004 -0.33342665 0.47069144
0.010805369 -0.008669481 -0.054083988 0.25903448 -0.24667597 0.0049793255 0.10243898 -0.44144142
-0.47445345 -0.3773752 0.08175261 -0.4745039 0.26176658 0.48771966 0.04646435 0.042223908
0.35290676 -0.057977375 0.122269034 -0.07092675 0.0669321 -0.21857256 -0.3561241 0.06374347
0.15136977 -0.4408179 0.34248754 0.2142572 -0.31415632 0.010068334 -0.56196606 -0.1420454
-0.042284187 0.09297098 0.32947004 0.0055494774 0.17804559 -0.47632354 0.09908005 -0.3614642
-0.15982264 0.32790926 0.16057205 -0.18999991 -0.1054871 0.38533288 0.36613852 0.03472796
0.32569155 0.5235865 -0.2845195 0.11114834 -0.0009752663 -0.058473937 -0.18471986 0.07915381
0.42248857 -0.17962362 -0.10802731 -0.16606808 -0.44964775 -0.23959316 -0.05563789 0.20224835
-0.06561742 0.3043279 -0.003227792 -0.13347007 0.0058532488 -0.45103857 0.0025429388 0.18485811
0.052862782 0.06647296 -0.35415682 0.65197414 -0.06769639 -0.013527688 -0.027755436 -0.010073232
0.17900673 -0.09148712 0.025853371 0.5357656 0.02320813 0.24646759 -0.042986494 0.036182035
0.12581585 0.13168943 -0.038354296 0.043366242 0.07215945 -0.25495702 -0.15049666 -0.025045754
0.2351324 0.21966337 0.0065298174 0.10137722 0.110733956 0.18043047 0.07120916 0.16868067
-0.049329575 -0.35979533 0.12546094 0.022550756 -0.5399924 -0.1241239 -0.13331974 0.31975824
-0.12762798 0.62164736 -0.32287982 -0.057639096 -0.6583447 -0.28525782 0.081270725 0.07561553
-0.20487584 0.22785133 0.30589208 0.06329845 0.24848548 -0.0053950916 0.06783569 0.118990116
0.06871462 0.3067171 -0.005917164 0.15985714 0.04914484 0.1587057 0.14758301 0.1542378
-0.23108734 0.017050175 -0.1581545 0.11310911 0.08192408 0.34661055 -0.021372428 -0.029672068
0.40403715 0.0685605 0.2013322 0.036847714 0.039620396 0.17020781 -0.26170573 0.021336896
-0.051726907 -0.3253658 0.19136548 0.20308177 -0.28501558 0.13238648 -0.11059461 -0.20045455
-0.047436904 -0.052458517 -0.024740878 0.018693743 0.15399079 -0.07579218 -0.08512605 -0.00080860604
-0.13722548 0.33738557 -0.14818108 -0.12810802 0.013034946 0.10329987 -0.052809834 0.07887509
0.029807212 0.21867436 -0.18955334 0.16200052 -0.020364258 -0.045512483 0.20702007 -0.02057492
-0.59922063 0.082054235 0.02972575 0.08527454 0.15762742 0.11831175 -0.036048766 -0.44902477
-0.015089892 0.23303309 0.010080808 -0.2302602 0.0022171093 -0.08064389 -0.29242897 -0.04788426
-0.54267365 0.011451015 -0.050686885 0.26877916 -0.0014520157 0.07560554 -0.2286991 0.26839384
00000000: 950f 89bd c956 703e 31e2 043d 3a32 a33c
00000010: 7209 47bc d096 853e 87a1 4dbe 33c5 bb3d
00000020: 5b55 83bd 325d 57be b781 563e 3f93 fdbd
00000030: c3cc 333d fa39 b03e c494 81be 57c5 a53d
00000040: 8761 b3be ba68 06bd a952 21bd 4c27 b63e
00000050: 3bdc 76be fb11 103f 73aa 9f3d 7253 96bd
00000060: a19a babd a914 a8be 8a34 2abe e2b1 2d3d
00000070: 6494 88bd e8a8 6c3a d980 d6bd 1222 db3e
00000080: be32 46be 3bd1 ac3b d627 83bd 3061 403e
00000090: eb8a cd3e 0bb8 76be b80d 63be e43c 683d
000000a0: 5b5c 383e a7c2 993e a735 ebbe 53f7 063d
000000b0: 9eb2 b33e 5a17 77bd e6b6 aabe 78fe f03e
000000c0: 0109 313c 700a 0ebc 2c87 5dbd 2ba0 843e
000000d0: a098 7cbe 9c29 a33b 87cb d13d 9c04 e2be
000000e0: 90eb f2be 5237 c1be ea6d a73d 2df2 f2be
000000f0: 4506 863e 64b6 f93e 6751 3e3d faf2 2c3d
00000100: 32b0 b43e af79 6dbd 3068 fa3d 0b42 91bd
00000110: b213 893d 7cd1 5fbe e655 b6be f08b 823d
00000120: ad00 1b3e e2b2 e1be 875a af3e 3d66 5b3e
00000130: 19d9 a0be a7f5 243c 02dd 0fbf 5974 11be
00000140: 2f32 2dbd 9267 be3d 4cb0 a83e 64d8 b53b
00000150: 9551 363e aee0 f3be 7bea ca3d d611 b9be
00000160: 8ca8 23be b9e3 a73e 006d 243e 568f 42be
00000170: 9f09 d8bd 5a4a c53e 8276 bb3e e83e 0e3d
00000180: 0bc1 a63e c409 063f 8aac 91be bea1 e33d
00000190: 03a9 7fba 5e82 6fbd 3427 3dbe 651b a23d
000001a0: 6c50 d83e 41ef 37be 6c3d ddbd c00d 2abe
000001b0: 3b38 e6be e957 75be 8ee4 63bd 311a 4f3e
000001c0: 6d62 86bd ded0 9b3e 5d89 53bb 61ac 08be
000001d0: 9ccc bf3b 87ee e6be 6fa7 263b 724b 3d3e
000001e0: a586 583d fa22 883d 0b54 b5be c7e7 263f
000001f0: 68a4 8abd 3ca3 5dbc 5e5f e3bc 330a 25bc
00000200: 8a4d 373e 995d bbbd 73ca d33c ef27 093f
00000210: fa1e be3c 0062 7c3e 9b12 30bd 9d33 143d
00000220: dfd5 003e 98d9 063e 6519 1dbd cda0 313d
00000230: 55c8 933d ba89 82be cc1b 1abe c12c cdbc
00000240: 8cc6 703e 6fef 603e 14f8 d53b dc9e cf3d
00000250: 7cc8 e23d c4c2 383e 1cd6 913d a0ba 2c3e
00000260: cf0d 4abd 1837 b8be d578 003e 5dbc b83c
00000270: f13c 0abf ac34 febd f884 08be 5ab7 a33e
00000280: e9b0 02be 4824 1f3f 8150 a5be f916 6cbd
00000290: 4789 28bf 500d 92be 4471 a63d 51dc 9a3d
000002a0: f9ca 51be dc51 693e e39d 9c3e 9ea2 813d
000002b0: fa72 7e3e 4fc9 b0bb 70ed 8a3d 17b1 f33d
000002c0: 40ba 8c3d 060a 9d3e c5e4 c1bb 97b1 233e
000002d0: 1a4c 493d bf83 223e 0020 173e 84f0 1d3e
000002e0: 29a2 6cbe cfac 8b3c 41f3 21be c0a5 e73d
000002f0: d0c7 a73d f076 b13e 3b15 afbc d612 f3bc
00000300: f5dd ce3e 7369 8c3d 072a 4e3e a1ed 163d
00000310: ff48 223d f54a 2e3e 4bfe 85be b7ca ae3c
00000320: 98df 53bd 5996 a6be 50f5 433e abf4 4f3e
00000330: 90ed 91be 5290 073e 6d7f e2bd f543 4dbe
00000340: 334d 42bd bede 56bd 62ad cabc 9f23 993c
00000350: c3af 1d3e ee38 9bbd 9156 aebd a2f8 53ba
00000360: d684 0cbe cdbd ac3e c8bc 17be c02e 03be
00000370: 8790 553c e28e d33d 204f 58bd 4389 a13d
00000380: 412e f43c 2cec 5f3e 451a 42be 77e3 253e
00000390: f2d2 a6bc 4c6b 3abd 12fd 533e bc8c a8bc
000003a0: 8666 19bf 0d0c a83d 6b83 f33c 6ba4 ae3d
000003b0: 1569 213e 6e4d f23d dfa7 13bd 93e6 e5be
000003c0: 983b 77bc 3aa0 6e3e f929 253c 54c9 6bbe
000003d0: ec4c 113b a028 a5bd 40b9 95be 4922 44bd
000003e0: a9ec 0abf 0a9d 3b3c 0d9d 4fbd 6c9d 893e
000003f0: 9051 beba 14d7 9a3d 1930 6abe eb6a 893e

net.4.bias f4 [7]
0.19114354 0.1912946 0.17191036 0.18297693 0.18152577 0.18453777 0.18244784
00000000: 22bb 433e bbe2 433e 4509 303e 4e5e 3b3e
00000010: e4e1 393e 78f7 3c3e 9bd3 3a3e
